{"format": "layers-model", "generatedBy": "keras v2.5.0", "convertedBy": "TensorFlow.js Converter v2.7.0", "modelTopology": {"keras_version": "2.5.0", "backend": "tensorflow", "model_config": {"class_name": "Functional", "config": {"name": "model", "layers": [{"class_name": "InputLayer", "config": {"batch_input_shape": [null, 192, 192, 3], "dtype": "float32", "sparse": false, "ragged": false, "name": "input_1"}, "name": "input_1", "inbound_nodes": []}, {"class_name": "Conv2D", "config": {"name": "front_conv_1x1_x1", "trainable": true, "dtype": "float32", "filters": 64, "kernel_size": [7, 7], "strides": [2, 2], "padding": "same", "data_format": "channels_last", "dilation_rate": [1, 1], "groups": 1, "activation": "relu", "use_bias": true, "kernel_initializer": {"class_name": "GlorotUniform", "config": {"seed": null}}, "bias_initializer": {"class_name": "Zeros", "config": {}}, "kernel_regularizer": null, "bias_regularizer": null, "activity_regularizer": null, "kernel_constraint": null, "bias_constraint": null}, "name": "front_conv_1x1_x1", "inbound_nodes": [[["input_1", 0, 0, {}]]]}, {"class_name": "BatchNormalization", "config": {"name": "batch_normalization", "trainable": true, "dtype": "float32", "axis": [3], "momentum": 0.99, "epsilon": 0.001, "center": true, "scale": true, "beta_initializer": {"class_name": "Zeros", "config": {}}, "gamma_initializer": {"class_name": "Ones", "config": {}}, "moving_mean_initializer": {"class_name": "Zeros", "config": {}}, "moving_variance_initializer": {"class_name": "Ones", "config": {}}, "beta_regularizer": null, "gamma_regularizer": null, "beta_constraint": null, "gamma_constraint": null}, "name": "batch_normalization", "inbound_nodes": [[["front_conv_1x1_x1", 0, 0, {}]]]}, {"class_name": "SeparableConv2D", "config": {"name": "front_residual_x1_conv_1x1_x1", "trainable": true, "dtype": "float32", "filters": 32, "kernel_size": [1, 1], "strides": [1, 1], "padding": "same", "data_format": "channels_last", "dilation_rate": [1, 1], "groups": 1, "activation": "relu", "use_bias": true, "kernel_initializer": {"class_name": "GlorotUniform", "config": {"seed": null}}, "bias_initializer": {"class_name": "Zeros", "config": {}}, "kernel_regularizer": null, "bias_regularizer": null, "activity_regularizer": null, "kernel_constraint": null, "bias_constraint": null, "depth_multiplier": 1, "depthwise_initializer": {"class_name": "GlorotUniform", "config": {"seed": null}}, "pointwise_initializer": {"class_name": "GlorotUniform", "config": {"seed": null}}, "depthwise_regularizer": null, "pointwise_regularizer": null, "depthwise_constraint": null, "pointwise_constraint": null}, "name": "front_residual_x1_conv_1x1_x1", "inbound_nodes": [[["batch_normalization", 0, 0, {}]]]}, {"class_name": "BatchNormalization", "config": {"name": "batch_normalization_1", "trainable": true, "dtype": "float32", "axis": [3], "momentum": 0.99, "epsilon": 0.001, "center": true, "scale": true, "beta_initializer": {"class_name": "Zeros", "config": {}}, "gamma_initializer": {"class_name": "Ones", "config": {}}, "moving_mean_initializer": {"class_name": "Zeros", "config": {}}, "moving_variance_initializer": {"class_name": "Ones", "config": {}}, "beta_regularizer": null, "gamma_regularizer": null, "beta_constraint": null, "gamma_constraint": null}, "name": "batch_normalization_1", "inbound_nodes": [[["front_residual_x1_conv_1x1_x1", 0, 0, {}]]]}, {"class_name": "SeparableConv2D", "config": {"name": "front_residual_x1_conv_3x3_x2", "trainable": true, "dtype": "float32", "filters": 32, "kernel_size": [3, 3], "strides": [1, 1], "padding": "same", "data_format": "channels_last", "dilation_rate": [1, 1], "groups": 1, "activation": "relu", "use_bias": true, "kernel_initializer": {"class_name": "GlorotUniform", "config": {"seed": null}}, "bias_initializer": {"class_name": "Zeros", "config": {}}, "kernel_regularizer": null, "bias_regularizer": null, "activity_regularizer": null, "kernel_constraint": null, "bias_constraint": null, "depth_multiplier": 1, "depthwise_initializer": {"class_name": "GlorotUniform", "config": {"seed": null}}, "pointwise_initializer": {"class_name": "GlorotUniform", "config": {"seed": null}}, "depthwise_regularizer": null, "pointwise_regularizer": null, "depthwise_constraint": null, "pointwise_constraint": null}, "name": "front_residual_x1_conv_3x3_x2", "inbound_nodes": [[["batch_normalization_1", 0, 0, {}]]]}, {"class_name": "BatchNormalization", "config": {"name": "batch_normalization_2", "trainable": true, "dtype": "float32", "axis": [3], "momentum": 0.99, "epsilon": 0.001, "center": true, "scale": true, "beta_initializer": {"class_name": "Zeros", "config": {}}, "gamma_initializer": {"class_name": "Ones", "config": {}}, "moving_mean_initializer": {"class_name": "Zeros", "config": {}}, "moving_variance_initializer": {"class_name": "Ones", "config": {}}, "beta_regularizer": null, "gamma_regularizer": null, "beta_constraint": null, "gamma_constraint": null}, "name": "batch_normalization_2", "inbound_nodes": [[["front_residual_x1_conv_3x3_x2", 0, 0, {}]]]}, {"class_name": "SeparableConv2D", "config": {"name": "front_residual_x1_conv_1x1_x3", "trainable": true, "dtype": "float32", "filters": 64, "kernel_size": [1, 1], "strides": [1, 1], "padding": "same", "data_format": "channels_last", "dilation_rate": [1, 1], "groups": 1, "activation": "relu", "use_bias": true, "kernel_initializer": {"class_name": "GlorotUniform", "config": {"seed": null}}, "bias_initializer": {"class_name": "Zeros", "config": {}}, "kernel_regularizer": null, "bias_regularizer": null, "activity_regularizer": null, "kernel_constraint": null, "bias_constraint": null, "depth_multiplier": 1, "depthwise_initializer": {"class_name": "GlorotUniform", "config": {"seed": null}}, "pointwise_initializer": {"class_name": "GlorotUniform", "config": {"seed": null}}, "depthwise_regularizer": null, "pointwise_regularizer": null, "depthwise_constraint": null, "pointwise_constraint": null}, "name": "front_residual_x1_conv_1x1_x3", "inbound_nodes": [[["batch_normalization_2", 0, 0, {}]]]}, {"class_name": "BatchNormalization", "config": {"name": "batch_normalization_3", "trainable": true, "dtype": "float32", "axis": [3], "momentum": 0.99, "epsilon": 0.001, "center": true, "scale": true, "beta_initializer": {"class_name": "Zeros", "config": {}}, "gamma_initializer": {"class_name": "Ones", "config": {}}, "moving_mean_initializer": {"class_name": "Zeros", "config": {}}, "moving_variance_initializer": {"class_name": "Ones", "config": {}}, "beta_regularizer": null, "gamma_regularizer": null, "beta_constraint": null, "gamma_constraint": null}, "name": "batch_normalization_3", "inbound_nodes": [[["front_residual_x1_conv_1x1_x3", 0, 0, {}]]]}, {"class_name": "Add", "config": {"name": "front_residual_x1_residual", "trainable": true, "dtype": "float32"}, "name": "front_residual_x1_residual", "inbound_nodes": [[["batch_normalization", 0, 0, {}], ["batch_normalization_3", 0, 0, {}]]]}, {"class_name": "MaxPooling2D", "config": {"name": "max_pooling2d", "trainable": true, "dtype": "float32", "pool_size": [2, 2], "padding": "valid", "strides": [2, 2], "data_format": "channels_last"}, "name": "max_pooling2d", "inbound_nodes": [[["front_residual_x1_residual", 0, 0, {}]]]}, {"class_name": "SeparableConv2D", "config": {"name": "front_residual_x2_conv_1x1_x1", "trainable": true, "dtype": "float32", "filters": 32, "kernel_size": [1, 1], "strides": [1, 1], "padding": "same", "data_format": "channels_last", "dilation_rate": [1, 1], "groups": 1, "activation": "relu", "use_bias": true, "kernel_initializer": {"class_name": "GlorotUniform", "config": {"seed": null}}, "bias_initializer": {"class_name": "Zeros", "config": {}}, "kernel_regularizer": null, "bias_regularizer": null, "activity_regularizer": null, "kernel_constraint": null, "bias_constraint": null, "depth_multiplier": 1, "depthwise_initializer": {"class_name": "GlorotUniform", "config": {"seed": null}}, "pointwise_initializer": {"class_name": "GlorotUniform", "config": {"seed": null}}, "depthwise_regularizer": null, "pointwise_regularizer": null, "depthwise_constraint": null, "pointwise_constraint": null}, "name": "front_residual_x2_conv_1x1_x1", "inbound_nodes": [[["max_pooling2d", 0, 0, {}]]]}, {"class_name": "BatchNormalization", "config": {"name": "batch_normalization_4", "trainable": true, "dtype": "float32", "axis": [3], "momentum": 0.99, "epsilon": 0.001, "center": true, "scale": true, "beta_initializer": {"class_name": "Zeros", "config": {}}, "gamma_initializer": {"class_name": "Ones", "config": {}}, "moving_mean_initializer": {"class_name": "Zeros", "config": {}}, "moving_variance_initializer": {"class_name": "Ones", "config": {}}, "beta_regularizer": null, "gamma_regularizer": null, "beta_constraint": null, "gamma_constraint": null}, "name": "batch_normalization_4", "inbound_nodes": [[["front_residual_x2_conv_1x1_x1", 0, 0, {}]]]}, {"class_name": "SeparableConv2D", "config": {"name": "front_residual_x2_conv_3x3_x2", "trainable": true, "dtype": "float32", "filters": 32, "kernel_size": [3, 3], "strides": [1, 1], "padding": "same", "data_format": "channels_last", "dilation_rate": [1, 1], "groups": 1, "activation": "relu", "use_bias": true, "kernel_initializer": {"class_name": "GlorotUniform", "config": {"seed": null}}, "bias_initializer": {"class_name": "Zeros", "config": {}}, "kernel_regularizer": null, "bias_regularizer": null, "activity_regularizer": null, "kernel_constraint": null, "bias_constraint": null, "depth_multiplier": 1, "depthwise_initializer": {"class_name": "GlorotUniform", "config": {"seed": null}}, "pointwise_initializer": {"class_name": "GlorotUniform", "config": {"seed": null}}, "depthwise_regularizer": null, "pointwise_regularizer": null, "depthwise_constraint": null, "pointwise_constraint": null}, "name": "front_residual_x2_conv_3x3_x2", "inbound_nodes": [[["batch_normalization_4", 0, 0, {}]]]}, {"class_name": "BatchNormalization", "config": {"name": "batch_normalization_5", "trainable": true, "dtype": "float32", "axis": [3], "momentum": 0.99, "epsilon": 0.001, "center": true, "scale": true, "beta_initializer": {"class_name": "Zeros", "config": {}}, "gamma_initializer": {"class_name": "Ones", "config": {}}, "moving_mean_initializer": {"class_name": "Zeros", "config": {}}, "moving_variance_initializer": {"class_name": "Ones", "config": {}}, "beta_regularizer": null, "gamma_regularizer": null, "beta_constraint": null, "gamma_constraint": null}, "name": "batch_normalization_5", "inbound_nodes": [[["front_residual_x2_conv_3x3_x2", 0, 0, {}]]]}, {"class_name": "SeparableConv2D", "config": {"name": "front_residual_x2_conv_1x1_x3", "trainable": true, "dtype": "float32", "filters": 64, "kernel_size": [1, 1], "strides": [1, 1], "padding": "same", "data_format": "channels_last", "dilation_rate": [1, 1], "groups": 1, "activation": "relu", "use_bias": true, "kernel_initializer": {"class_name": "GlorotUniform", "config": {"seed": null}}, "bias_initializer": {"class_name": "Zeros", "config": {}}, "kernel_regularizer": null, "bias_regularizer": null, "activity_regularizer": null, "kernel_constraint": null, "bias_constraint": null, "depth_multiplier": 1, "depthwise_initializer": {"class_name": "GlorotUniform", "config": {"seed": null}}, "pointwise_initializer": {"class_name": "GlorotUniform", "config": {"seed": null}}, "depthwise_regularizer": null, "pointwise_regularizer": null, "depthwise_constraint": null, "pointwise_constraint": null}, "name": "front_residual_x2_conv_1x1_x3", "inbound_nodes": [[["batch_normalization_5", 0, 0, {}]]]}, {"class_name": "BatchNormalization", "config": {"name": "batch_normalization_6", "trainable": true, "dtype": "float32", "axis": [3], "momentum": 0.99, "epsilon": 0.001, "center": true, "scale": true, "beta_initializer": {"class_name": "Zeros", "config": {}}, "gamma_initializer": {"class_name": "Ones", "config": {}}, "moving_mean_initializer": {"class_name": "Zeros", "config": {}}, "moving_variance_initializer": {"class_name": "Ones", "config": {}}, "beta_regularizer": null, "gamma_regularizer": null, "beta_constraint": null, "gamma_constraint": null}, "name": "batch_normalization_6", "inbound_nodes": [[["front_residual_x2_conv_1x1_x3", 0, 0, {}]]]}, {"class_name": "Add", "config": {"name": "front_residual_x2_residual", "trainable": true, "dtype": "float32"}, "name": "front_residual_x2_residual", "inbound_nodes": [[["max_pooling2d", 0, 0, {}], ["batch_normalization_6", 0, 0, {}]]]}, {"class_name": "SeparableConv2D", "config": {"name": "front_residual_x3_conv_1x1_x1", "trainable": true, "dtype": "float32", "filters": 64, "kernel_size": [1, 1], "strides": [1, 1], "padding": "same", "data_format": "channels_last", "dilation_rate": [1, 1], "groups": 1, "activation": "relu", "use_bias": true, "kernel_initializer": {"class_name": "GlorotUniform", "config": {"seed": null}}, "bias_initializer": {"class_name": "Zeros", "config": {}}, "kernel_regularizer": null, "bias_regularizer": null, "activity_regularizer": null, "kernel_constraint": null, "bias_constraint": null, "depth_multiplier": 1, "depthwise_initializer": {"class_name": "GlorotUniform", "config": {"seed": null}}, "pointwise_initializer": {"class_name": "GlorotUniform", "config": {"seed": null}}, "depthwise_regularizer": null, "pointwise_regularizer": null, "depthwise_constraint": null, "pointwise_constraint": null}, "name": "front_residual_x3_conv_1x1_x1", "inbound_nodes": [[["front_residual_x2_residual", 0, 0, {}]]]}, {"class_name": "BatchNormalization", "config": {"name": "batch_normalization_7", "trainable": true, "dtype": "float32", "axis": [3], "momentum": 0.99, "epsilon": 0.001, "center": true, "scale": true, "beta_initializer": {"class_name": "Zeros", "config": {}}, "gamma_initializer": {"class_name": "Ones", "config": {}}, "moving_mean_initializer": {"class_name": "Zeros", "config": {}}, "moving_variance_initializer": {"class_name": "Ones", "config": {}}, "beta_regularizer": null, "gamma_regularizer": null, "beta_constraint": null, "gamma_constraint": null}, "name": "batch_normalization_7", "inbound_nodes": [[["front_residual_x3_conv_1x1_x1", 0, 0, {}]]]}, {"class_name": "SeparableConv2D", "config": {"name": "front_residual_x3_conv_3x3_x2", "trainable": true, "dtype": "float32", "filters": 64, "kernel_size": [3, 3], "strides": [1, 1], "padding": "same", "data_format": "channels_last", "dilation_rate": [1, 1], "groups": 1, "activation": "relu", "use_bias": true, "kernel_initializer": {"class_name": "GlorotUniform", "config": {"seed": null}}, "bias_initializer": {"class_name": "Zeros", "config": {}}, "kernel_regularizer": null, "bias_regularizer": null, "activity_regularizer": null, "kernel_constraint": null, "bias_constraint": null, "depth_multiplier": 1, "depthwise_initializer": {"class_name": "GlorotUniform", "config": {"seed": null}}, "pointwise_initializer": {"class_name": "GlorotUniform", "config": {"seed": null}}, "depthwise_regularizer": null, "pointwise_regularizer": null, "depthwise_constraint": null, "pointwise_constraint": null}, "name": "front_residual_x3_conv_3x3_x2", "inbound_nodes": [[["batch_normalization_7", 0, 0, {}]]]}, {"class_name": "BatchNormalization", "config": {"name": "batch_normalization_8", "trainable": true, "dtype": "float32", "axis": [3], "momentum": 0.99, "epsilon": 0.001, "center": true, "scale": true, "beta_initializer": {"class_name": "Zeros", "config": {}}, "gamma_initializer": {"class_name": "Ones", "config": {}}, "moving_mean_initializer": {"class_name": "Zeros", "config": {}}, "moving_variance_initializer": {"class_name": "Ones", "config": {}}, "beta_regularizer": null, "gamma_regularizer": null, "beta_constraint": null, "gamma_constraint": null}, "name": "batch_normalization_8", "inbound_nodes": [[["front_residual_x3_conv_3x3_x2", 0, 0, {}]]]}, {"class_name": "SeparableConv2D", "config": {"name": "front_residual_x3_conv_1x1_x3", "trainable": true, "dtype": "float32", "filters": 128, "kernel_size": [1, 1], "strides": [1, 1], "padding": "same", "data_format": "channels_last", "dilation_rate": [1, 1], "groups": 1, "activation": "relu", "use_bias": true, "kernel_initializer": {"class_name": "GlorotUniform", "config": {"seed": null}}, "bias_initializer": {"class_name": "Zeros", "config": {}}, "kernel_regularizer": null, "bias_regularizer": null, "activity_regularizer": null, "kernel_constraint": null, "bias_constraint": null, "depth_multiplier": 1, "depthwise_initializer": {"class_name": "GlorotUniform", "config": {"seed": null}}, "pointwise_initializer": {"class_name": "GlorotUniform", "config": {"seed": null}}, "depthwise_regularizer": null, "pointwise_regularizer": null, "depthwise_constraint": null, "pointwise_constraint": null}, "name": "front_residual_x3_conv_1x1_x3", "inbound_nodes": [[["batch_normalization_8", 0, 0, {}]]]}, {"class_name": "SeparableConv2D", "config": {"name": "front_residual_x3skip", "trainable": true, "dtype": "float32", "filters": 128, "kernel_size": [1, 1], "strides": [1, 1], "padding": "same", "data_format": "channels_last", "dilation_rate": [1, 1], "groups": 1, "activation": "relu", "use_bias": true, "kernel_initializer": {"class_name": "GlorotUniform", "config": {"seed": null}}, "bias_initializer": {"class_name": "Zeros", "config": {}}, "kernel_regularizer": null, "bias_regularizer": null, "activity_regularizer": null, "kernel_constraint": null, "bias_constraint": null, "depth_multiplier": 1, "depthwise_initializer": {"class_name": "GlorotUniform", "config": {"seed": null}}, "pointwise_initializer": {"class_name": "GlorotUniform", "config": {"seed": null}}, "depthwise_regularizer": null, "pointwise_regularizer": null, "depthwise_constraint": null, "pointwise_constraint": null}, "name": "front_residual_x3skip", "inbound_nodes": [[["front_residual_x2_residual", 0, 0, {}]]]}, {"class_name": "BatchNormalization", "config": {"name": "batch_normalization_9", "trainable": true, "dtype": "float32", "axis": [3], "momentum": 0.99, "epsilon": 0.001, "center": true, "scale": true, "beta_initializer": {"class_name": "Zeros", "config": {}}, "gamma_initializer": {"class_name": "Ones", "config": {}}, "moving_mean_initializer": {"class_name": "Zeros", "config": {}}, "moving_variance_initializer": {"class_name": "Ones", "config": {}}, "beta_regularizer": null, "gamma_regularizer": null, "beta_constraint": null, "gamma_constraint": null}, "name": "batch_normalization_9", "inbound_nodes": [[["front_residual_x3_conv_1x1_x3", 0, 0, {}]]]}, {"class_name": "Add", "config": {"name": "front_residual_x3_residual", "trainable": true, "dtype": "float32"}, "name": "front_residual_x3_residual", "inbound_nodes": [[["front_residual_x3skip", 0, 0, {}], ["batch_normalization_9", 0, 0, {}]]]}, {"class_name": "SeparableConv2D", "config": {"name": "hg0_l1_conv_1x1_x1", "trainable": true, "dtype": "float32", "filters": 64, "kernel_size": [1, 1], "strides": [1, 1], "padding": "same", "data_format": "channels_last", "dilation_rate": [1, 1], "groups": 1, "activation": "relu", "use_bias": true, "kernel_initializer": {"class_name": "GlorotUniform", "config": {"seed": null}}, "bias_initializer": {"class_name": "Zeros", "config": {}}, "kernel_regularizer": null, "bias_regularizer": null, "activity_regularizer": null, "kernel_constraint": null, "bias_constraint": null, "depth_multiplier": 1, "depthwise_initializer": {"class_name": "GlorotUniform", "config": {"seed": null}}, "pointwise_initializer": {"class_name": "GlorotUniform", "config": {"seed": null}}, "depthwise_regularizer": null, "pointwise_regularizer": null, "depthwise_constraint": null, "pointwise_constraint": null}, "name": "hg0_l1_conv_1x1_x1", "inbound_nodes": [[["front_residual_x3_residual", 0, 0, {}]]]}, {"class_name": "BatchNormalization", "config": {"name": "batch_normalization_10", "trainable": true, "dtype": "float32", "axis": [3], "momentum": 0.99, "epsilon": 0.001, "center": true, "scale": true, "beta_initializer": {"class_name": "Zeros", "config": {}}, "gamma_initializer": {"class_name": "Ones", "config": {}}, "moving_mean_initializer": {"class_name": "Zeros", "config": {}}, "moving_variance_initializer": {"class_name": "Ones", "config": {}}, "beta_regularizer": null, "gamma_regularizer": null, "beta_constraint": null, "gamma_constraint": null}, "name": "batch_normalization_10", "inbound_nodes": [[["hg0_l1_conv_1x1_x1", 0, 0, {}]]]}, {"class_name": "SeparableConv2D", "config": {"name": "hg0_l1_conv_3x3_x2", "trainable": true, "dtype": "float32", "filters": 64, "kernel_size": [3, 3], "strides": [1, 1], "padding": "same", "data_format": "channels_last", "dilation_rate": [1, 1], "groups": 1, "activation": "relu", "use_bias": true, "kernel_initializer": {"class_name": "GlorotUniform", "config": {"seed": null}}, "bias_initializer": {"class_name": "Zeros", "config": {}}, "kernel_regularizer": null, "bias_regularizer": null, "activity_regularizer": null, "kernel_constraint": null, "bias_constraint": null, "depth_multiplier": 1, "depthwise_initializer": {"class_name": "GlorotUniform", "config": {"seed": null}}, "pointwise_initializer": {"class_name": "GlorotUniform", "config": {"seed": null}}, "depthwise_regularizer": null, "pointwise_regularizer": null, "depthwise_constraint": null, "pointwise_constraint": null}, "name": "hg0_l1_conv_3x3_x2", "inbound_nodes": [[["batch_normalization_10", 0, 0, {}]]]}, {"class_name": "BatchNormalization", "config": {"name": "batch_normalization_11", "trainable": true, "dtype": "float32", "axis": [3], "momentum": 0.99, "epsilon": 0.001, "center": true, "scale": true, "beta_initializer": {"class_name": "Zeros", "config": {}}, "gamma_initializer": {"class_name": "Ones", "config": {}}, "moving_mean_initializer": {"class_name": "Zeros", "config": {}}, "moving_variance_initializer": {"class_name": "Ones", "config": {}}, "beta_regularizer": null, "gamma_regularizer": null, "beta_constraint": null, "gamma_constraint": null}, "name": "batch_normalization_11", "inbound_nodes": [[["hg0_l1_conv_3x3_x2", 0, 0, {}]]]}, {"class_name": "SeparableConv2D", "config": {"name": "hg0_l1_conv_1x1_x3", "trainable": true, "dtype": "float32", "filters": 128, "kernel_size": [1, 1], "strides": [1, 1], "padding": "same", "data_format": "channels_last", "dilation_rate": [1, 1], "groups": 1, "activation": "relu", "use_bias": true, "kernel_initializer": {"class_name": "GlorotUniform", "config": {"seed": null}}, "bias_initializer": {"class_name": "Zeros", "config": {}}, "kernel_regularizer": null, "bias_regularizer": null, "activity_regularizer": null, "kernel_constraint": null, "bias_constraint": null, "depth_multiplier": 1, "depthwise_initializer": {"class_name": "GlorotUniform", "config": {"seed": null}}, "pointwise_initializer": {"class_name": "GlorotUniform", "config": {"seed": null}}, "depthwise_regularizer": null, "pointwise_regularizer": null, "depthwise_constraint": null, "pointwise_constraint": null}, "name": "hg0_l1_conv_1x1_x3", "inbound_nodes": [[["batch_normalization_11", 0, 0, {}]]]}, {"class_name": "BatchNormalization", "config": {"name": "batch_normalization_12", "trainable": true, "dtype": "float32", "axis": [3], "momentum": 0.99, "epsilon": 0.001, "center": true, "scale": true, "beta_initializer": {"class_name": "Zeros", "config": {}}, "gamma_initializer": {"class_name": "Ones", "config": {}}, "moving_mean_initializer": {"class_name": "Zeros", "config": {}}, "moving_variance_initializer": {"class_name": "Ones", "config": {}}, "beta_regularizer": null, "gamma_regularizer": null, "beta_constraint": null, "gamma_constraint": null}, "name": "batch_normalization_12", "inbound_nodes": [[["hg0_l1_conv_1x1_x3", 0, 0, {}]]]}, {"class_name": "Add", "config": {"name": "hg0_l1_residual", "trainable": true, "dtype": "float32"}, "name": "hg0_l1_residual", "inbound_nodes": [[["front_residual_x3_residual", 0, 0, {}], ["batch_normalization_12", 0, 0, {}]]]}, {"class_name": "MaxPooling2D", "config": {"name": "max_pooling2d_1", "trainable": true, "dtype": "float32", "pool_size": [2, 2], "padding": "valid", "strides": [2, 2], "data_format": "channels_last"}, "name": "max_pooling2d_1", "inbound_nodes": [[["hg0_l1_residual", 0, 0, {}]]]}, {"class_name": "SeparableConv2D", "config": {"name": "hg0_l2_conv_1x1_x1", "trainable": true, "dtype": "float32", "filters": 64, "kernel_size": [1, 1], "strides": [1, 1], "padding": "same", "data_format": "channels_last", "dilation_rate": [1, 1], "groups": 1, "activation": "relu", "use_bias": true, "kernel_initializer": {"class_name": "GlorotUniform", "config": {"seed": null}}, "bias_initializer": {"class_name": "Zeros", "config": {}}, "kernel_regularizer": null, "bias_regularizer": null, "activity_regularizer": null, "kernel_constraint": null, "bias_constraint": null, "depth_multiplier": 1, "depthwise_initializer": {"class_name": "GlorotUniform", "config": {"seed": null}}, "pointwise_initializer": {"class_name": "GlorotUniform", "config": {"seed": null}}, "depthwise_regularizer": null, "pointwise_regularizer": null, "depthwise_constraint": null, "pointwise_constraint": null}, "name": "hg0_l2_conv_1x1_x1", "inbound_nodes": [[["max_pooling2d_1", 0, 0, {}]]]}, {"class_name": "BatchNormalization", "config": {"name": "batch_normalization_13", "trainable": true, "dtype": "float32", "axis": [3], "momentum": 0.99, "epsilon": 0.001, "center": true, "scale": true, "beta_initializer": {"class_name": "Zeros", "config": {}}, "gamma_initializer": {"class_name": "Ones", "config": {}}, "moving_mean_initializer": {"class_name": "Zeros", "config": {}}, "moving_variance_initializer": {"class_name": "Ones", "config": {}}, "beta_regularizer": null, "gamma_regularizer": null, "beta_constraint": null, "gamma_constraint": null}, "name": "batch_normalization_13", "inbound_nodes": [[["hg0_l2_conv_1x1_x1", 0, 0, {}]]]}, {"class_name": "SeparableConv2D", "config": {"name": "hg0_l2_conv_3x3_x2", "trainable": true, "dtype": "float32", "filters": 64, "kernel_size": [3, 3], "strides": [1, 1], "padding": "same", "data_format": "channels_last", "dilation_rate": [1, 1], "groups": 1, "activation": "relu", "use_bias": true, "kernel_initializer": {"class_name": "GlorotUniform", "config": {"seed": null}}, "bias_initializer": {"class_name": "Zeros", "config": {}}, "kernel_regularizer": null, "bias_regularizer": null, "activity_regularizer": null, "kernel_constraint": null, "bias_constraint": null, "depth_multiplier": 1, "depthwise_initializer": {"class_name": "GlorotUniform", "config": {"seed": null}}, "pointwise_initializer": {"class_name": "GlorotUniform", "config": {"seed": null}}, "depthwise_regularizer": null, "pointwise_regularizer": null, "depthwise_constraint": null, "pointwise_constraint": null}, "name": "hg0_l2_conv_3x3_x2", "inbound_nodes": [[["batch_normalization_13", 0, 0, {}]]]}, {"class_name": "BatchNormalization", "config": {"name": "batch_normalization_14", "trainable": true, "dtype": "float32", "axis": [3], "momentum": 0.99, "epsilon": 0.001, "center": true, "scale": true, "beta_initializer": {"class_name": "Zeros", "config": {}}, "gamma_initializer": {"class_name": "Ones", "config": {}}, "moving_mean_initializer": {"class_name": "Zeros", "config": {}}, "moving_variance_initializer": {"class_name": "Ones", "config": {}}, "beta_regularizer": null, "gamma_regularizer": null, "beta_constraint": null, "gamma_constraint": null}, "name": "batch_normalization_14", "inbound_nodes": [[["hg0_l2_conv_3x3_x2", 0, 0, {}]]]}, {"class_name": "SeparableConv2D", "config": {"name": "hg0_l2_conv_1x1_x3", "trainable": true, "dtype": "float32", "filters": 128, "kernel_size": [1, 1], "strides": [1, 1], "padding": "same", "data_format": "channels_last", "dilation_rate": [1, 1], "groups": 1, "activation": "relu", "use_bias": true, "kernel_initializer": {"class_name": "GlorotUniform", "config": {"seed": null}}, "bias_initializer": {"class_name": "Zeros", "config": {}}, "kernel_regularizer": null, "bias_regularizer": null, "activity_regularizer": null, "kernel_constraint": null, "bias_constraint": null, "depth_multiplier": 1, "depthwise_initializer": {"class_name": "GlorotUniform", "config": {"seed": null}}, "pointwise_initializer": {"class_name": "GlorotUniform", "config": {"seed": null}}, "depthwise_regularizer": null, "pointwise_regularizer": null, "depthwise_constraint": null, "pointwise_constraint": null}, "name": "hg0_l2_conv_1x1_x3", "inbound_nodes": [[["batch_normalization_14", 0, 0, {}]]]}, {"class_name": "BatchNormalization", "config": {"name": "batch_normalization_15", "trainable": true, "dtype": "float32", "axis": [3], "momentum": 0.99, "epsilon": 0.001, "center": true, "scale": true, "beta_initializer": {"class_name": "Zeros", "config": {}}, "gamma_initializer": {"class_name": "Ones", "config": {}}, "moving_mean_initializer": {"class_name": "Zeros", "config": {}}, "moving_variance_initializer": {"class_name": "Ones", "config": {}}, "beta_regularizer": null, "gamma_regularizer": null, "beta_constraint": null, "gamma_constraint": null}, "name": "batch_normalization_15", "inbound_nodes": [[["hg0_l2_conv_1x1_x3", 0, 0, {}]]]}, {"class_name": "Add", "config": {"name": "hg0_l2_residual", "trainable": true, "dtype": "float32"}, "name": "hg0_l2_residual", "inbound_nodes": [[["max_pooling2d_1", 0, 0, {}], ["batch_normalization_15", 0, 0, {}]]]}, {"class_name": "MaxPooling2D", "config": {"name": "max_pooling2d_2", "trainable": true, "dtype": "float32", "pool_size": [2, 2], "padding": "valid", "strides": [2, 2], "data_format": "channels_last"}, "name": "max_pooling2d_2", "inbound_nodes": [[["hg0_l2_residual", 0, 0, {}]]]}, {"class_name": "SeparableConv2D", "config": {"name": "hg0_l4_conv_1x1_x1", "trainable": true, "dtype": "float32", "filters": 64, "kernel_size": [1, 1], "strides": [1, 1], "padding": "same", "data_format": "channels_last", "dilation_rate": [1, 1], "groups": 1, "activation": "relu", "use_bias": true, "kernel_initializer": {"class_name": "GlorotUniform", "config": {"seed": null}}, "bias_initializer": {"class_name": "Zeros", "config": {}}, "kernel_regularizer": null, "bias_regularizer": null, "activity_regularizer": null, "kernel_constraint": null, "bias_constraint": null, "depth_multiplier": 1, "depthwise_initializer": {"class_name": "GlorotUniform", "config": {"seed": null}}, "pointwise_initializer": {"class_name": "GlorotUniform", "config": {"seed": null}}, "depthwise_regularizer": null, "pointwise_regularizer": null, "depthwise_constraint": null, "pointwise_constraint": null}, "name": "hg0_l4_conv_1x1_x1", "inbound_nodes": [[["max_pooling2d_2", 0, 0, {}]]]}, {"class_name": "BatchNormalization", "config": {"name": "batch_normalization_16", "trainable": true, "dtype": "float32", "axis": [3], "momentum": 0.99, "epsilon": 0.001, "center": true, "scale": true, "beta_initializer": {"class_name": "Zeros", "config": {}}, "gamma_initializer": {"class_name": "Ones", "config": {}}, "moving_mean_initializer": {"class_name": "Zeros", "config": {}}, "moving_variance_initializer": {"class_name": "Ones", "config": {}}, "beta_regularizer": null, "gamma_regularizer": null, "beta_constraint": null, "gamma_constraint": null}, "name": "batch_normalization_16", "inbound_nodes": [[["hg0_l4_conv_1x1_x1", 0, 0, {}]]]}, {"class_name": "SeparableConv2D", "config": {"name": "hg0_l4_conv_3x3_x2", "trainable": true, "dtype": "float32", "filters": 64, "kernel_size": [3, 3], "strides": [1, 1], "padding": "same", "data_format": "channels_last", "dilation_rate": [1, 1], "groups": 1, "activation": "relu", "use_bias": true, "kernel_initializer": {"class_name": "GlorotUniform", "config": {"seed": null}}, "bias_initializer": {"class_name": "Zeros", "config": {}}, "kernel_regularizer": null, "bias_regularizer": null, "activity_regularizer": null, "kernel_constraint": null, "bias_constraint": null, "depth_multiplier": 1, "depthwise_initializer": {"class_name": "GlorotUniform", "config": {"seed": null}}, "pointwise_initializer": {"class_name": "GlorotUniform", "config": {"seed": null}}, "depthwise_regularizer": null, "pointwise_regularizer": null, "depthwise_constraint": null, "pointwise_constraint": null}, "name": "hg0_l4_conv_3x3_x2", "inbound_nodes": [[["batch_normalization_16", 0, 0, {}]]]}, {"class_name": "BatchNormalization", "config": {"name": "batch_normalization_17", "trainable": true, "dtype": "float32", "axis": [3], "momentum": 0.99, "epsilon": 0.001, "center": true, "scale": true, "beta_initializer": {"class_name": "Zeros", "config": {}}, "gamma_initializer": {"class_name": "Ones", "config": {}}, "moving_mean_initializer": {"class_name": "Zeros", "config": {}}, "moving_variance_initializer": {"class_name": "Ones", "config": {}}, "beta_regularizer": null, "gamma_regularizer": null, "beta_constraint": null, "gamma_constraint": null}, "name": "batch_normalization_17", "inbound_nodes": [[["hg0_l4_conv_3x3_x2", 0, 0, {}]]]}, {"class_name": "SeparableConv2D", "config": {"name": "hg0_l4_conv_1x1_x3", "trainable": true, "dtype": "float32", "filters": 128, "kernel_size": [1, 1], "strides": [1, 1], "padding": "same", "data_format": "channels_last", "dilation_rate": [1, 1], "groups": 1, "activation": "relu", "use_bias": true, "kernel_initializer": {"class_name": "GlorotUniform", "config": {"seed": null}}, "bias_initializer": {"class_name": "Zeros", "config": {}}, "kernel_regularizer": null, "bias_regularizer": null, "activity_regularizer": null, "kernel_constraint": null, "bias_constraint": null, "depth_multiplier": 1, "depthwise_initializer": {"class_name": "GlorotUniform", "config": {"seed": null}}, "pointwise_initializer": {"class_name": "GlorotUniform", "config": {"seed": null}}, "depthwise_regularizer": null, "pointwise_regularizer": null, "depthwise_constraint": null, "pointwise_constraint": null}, "name": "hg0_l4_conv_1x1_x3", "inbound_nodes": [[["batch_normalization_17", 0, 0, {}]]]}, {"class_name": "BatchNormalization", "config": {"name": "batch_normalization_18", "trainable": true, "dtype": "float32", "axis": [3], "momentum": 0.99, "epsilon": 0.001, "center": true, "scale": true, "beta_initializer": {"class_name": "Zeros", "config": {}}, "gamma_initializer": {"class_name": "Ones", "config": {}}, "moving_mean_initializer": {"class_name": "Zeros", "config": {}}, "moving_variance_initializer": {"class_name": "Ones", "config": {}}, "beta_regularizer": null, "gamma_regularizer": null, "beta_constraint": null, "gamma_constraint": null}, "name": "batch_normalization_18", "inbound_nodes": [[["hg0_l4_conv_1x1_x3", 0, 0, {}]]]}, {"class_name": "Add", "config": {"name": "hg0_l4_residual", "trainable": true, "dtype": "float32"}, "name": "hg0_l4_residual", "inbound_nodes": [[["max_pooling2d_2", 0, 0, {}], ["batch_normalization_18", 0, 0, {}]]]}, {"class_name": "MaxPooling2D", "config": {"name": "max_pooling2d_3", "trainable": true, "dtype": "float32", "pool_size": [2, 2], "padding": "valid", "strides": [2, 2], "data_format": "channels_last"}, "name": "max_pooling2d_3", "inbound_nodes": [[["hg0_l4_residual", 0, 0, {}]]]}, {"class_name": "SeparableConv2D", "config": {"name": "hg0_l8_conv_1x1_x1", "trainable": true, "dtype": "float32", "filters": 64, "kernel_size": [1, 1], "strides": [1, 1], "padding": "same", "data_format": "channels_last", "dilation_rate": [1, 1], "groups": 1, "activation": "relu", "use_bias": true, "kernel_initializer": {"class_name": "GlorotUniform", "config": {"seed": null}}, "bias_initializer": {"class_name": "Zeros", "config": {}}, "kernel_regularizer": null, "bias_regularizer": null, "activity_regularizer": null, "kernel_constraint": null, "bias_constraint": null, "depth_multiplier": 1, "depthwise_initializer": {"class_name": "GlorotUniform", "config": {"seed": null}}, "pointwise_initializer": {"class_name": "GlorotUniform", "config": {"seed": null}}, "depthwise_regularizer": null, "pointwise_regularizer": null, "depthwise_constraint": null, "pointwise_constraint": null}, "name": "hg0_l8_conv_1x1_x1", "inbound_nodes": [[["max_pooling2d_3", 0, 0, {}]]]}, {"class_name": "BatchNormalization", "config": {"name": "batch_normalization_19", "trainable": true, "dtype": "float32", "axis": [3], "momentum": 0.99, "epsilon": 0.001, "center": true, "scale": true, "beta_initializer": {"class_name": "Zeros", "config": {}}, "gamma_initializer": {"class_name": "Ones", "config": {}}, "moving_mean_initializer": {"class_name": "Zeros", "config": {}}, "moving_variance_initializer": {"class_name": "Ones", "config": {}}, "beta_regularizer": null, "gamma_regularizer": null, "beta_constraint": null, "gamma_constraint": null}, "name": "batch_normalization_19", "inbound_nodes": [[["hg0_l8_conv_1x1_x1", 0, 0, {}]]]}, {"class_name": "SeparableConv2D", "config": {"name": "hg0_l8_conv_3x3_x2", "trainable": true, "dtype": "float32", "filters": 64, "kernel_size": [3, 3], "strides": [1, 1], "padding": "same", "data_format": "channels_last", "dilation_rate": [1, 1], "groups": 1, "activation": "relu", "use_bias": true, "kernel_initializer": {"class_name": "GlorotUniform", "config": {"seed": null}}, "bias_initializer": {"class_name": "Zeros", "config": {}}, "kernel_regularizer": null, "bias_regularizer": null, "activity_regularizer": null, "kernel_constraint": null, "bias_constraint": null, "depth_multiplier": 1, "depthwise_initializer": {"class_name": "GlorotUniform", "config": {"seed": null}}, "pointwise_initializer": {"class_name": "GlorotUniform", "config": {"seed": null}}, "depthwise_regularizer": null, "pointwise_regularizer": null, "depthwise_constraint": null, "pointwise_constraint": null}, "name": "hg0_l8_conv_3x3_x2", "inbound_nodes": [[["batch_normalization_19", 0, 0, {}]]]}, {"class_name": "BatchNormalization", "config": {"name": "batch_normalization_20", "trainable": true, "dtype": "float32", "axis": [3], "momentum": 0.99, "epsilon": 0.001, "center": true, "scale": true, "beta_initializer": {"class_name": "Zeros", "config": {}}, "gamma_initializer": {"class_name": "Ones", "config": {}}, "moving_mean_initializer": {"class_name": "Zeros", "config": {}}, "moving_variance_initializer": {"class_name": "Ones", "config": {}}, "beta_regularizer": null, "gamma_regularizer": null, "beta_constraint": null, "gamma_constraint": null}, "name": "batch_normalization_20", "inbound_nodes": [[["hg0_l8_conv_3x3_x2", 0, 0, {}]]]}, {"class_name": "SeparableConv2D", "config": {"name": "hg0_l8_conv_1x1_x3", "trainable": true, "dtype": "float32", "filters": 128, "kernel_size": [1, 1], "strides": [1, 1], "padding": "same", "data_format": "channels_last", "dilation_rate": [1, 1], "groups": 1, "activation": "relu", "use_bias": true, "kernel_initializer": {"class_name": "GlorotUniform", "config": {"seed": null}}, "bias_initializer": {"class_name": "Zeros", "config": {}}, "kernel_regularizer": null, "bias_regularizer": null, "activity_regularizer": null, "kernel_constraint": null, "bias_constraint": null, "depth_multiplier": 1, "depthwise_initializer": {"class_name": "GlorotUniform", "config": {"seed": null}}, "pointwise_initializer": {"class_name": "GlorotUniform", "config": {"seed": null}}, "depthwise_regularizer": null, "pointwise_regularizer": null, "depthwise_constraint": null, "pointwise_constraint": null}, "name": "hg0_l8_conv_1x1_x3", "inbound_nodes": [[["batch_normalization_20", 0, 0, {}]]]}, {"class_name": "BatchNormalization", "config": {"name": "batch_normalization_21", "trainable": true, "dtype": "float32", "axis": [3], "momentum": 0.99, "epsilon": 0.001, "center": true, "scale": true, "beta_initializer": {"class_name": "Zeros", "config": {}}, "gamma_initializer": {"class_name": "Ones", "config": {}}, "moving_mean_initializer": {"class_name": "Zeros", "config": {}}, "moving_variance_initializer": {"class_name": "Ones", "config": {}}, "beta_regularizer": null, "gamma_regularizer": null, "beta_constraint": null, "gamma_constraint": null}, "name": "batch_normalization_21", "inbound_nodes": [[["hg0_l8_conv_1x1_x3", 0, 0, {}]]]}, {"class_name": "Add", "config": {"name": "hg0_l8_residual", "trainable": true, "dtype": "float32"}, "name": "hg0_l8_residual", "inbound_nodes": [[["max_pooling2d_3", 0, 0, {}], ["batch_normalization_21", 0, 0, {}]]]}, {"class_name": "SeparableConv2D", "config": {"name": "0_lf8_x1_conv_1x1_x1", "trainable": true, "dtype": "float32", "filters": 64, "kernel_size": [1, 1], "strides": [1, 1], "padding": "same", "data_format": "channels_last", "dilation_rate": [1, 1], "groups": 1, "activation": "relu", "use_bias": true, "kernel_initializer": {"class_name": "GlorotUniform", "config": {"seed": null}}, "bias_initializer": {"class_name": "Zeros", "config": {}}, "kernel_regularizer": null, "bias_regularizer": null, "activity_regularizer": null, "kernel_constraint": null, "bias_constraint": null, "depth_multiplier": 1, "depthwise_initializer": {"class_name": "GlorotUniform", "config": {"seed": null}}, "pointwise_initializer": {"class_name": "GlorotUniform", "config": {"seed": null}}, "depthwise_regularizer": null, "pointwise_regularizer": null, "depthwise_constraint": null, "pointwise_constraint": null}, "name": "0_lf8_x1_conv_1x1_x1", "inbound_nodes": [[["hg0_l8_residual", 0, 0, {}]]]}, {"class_name": "BatchNormalization", "config": {"name": "batch_normalization_25", "trainable": true, "dtype": "float32", "axis": [3], "momentum": 0.99, "epsilon": 0.001, "center": true, "scale": true, "beta_initializer": {"class_name": "Zeros", "config": {}}, "gamma_initializer": {"class_name": "Ones", "config": {}}, "moving_mean_initializer": {"class_name": "Zeros", "config": {}}, "moving_variance_initializer": {"class_name": "Ones", "config": {}}, "beta_regularizer": null, "gamma_regularizer": null, "beta_constraint": null, "gamma_constraint": null}, "name": "batch_normalization_25", "inbound_nodes": [[["0_lf8_x1_conv_1x1_x1", 0, 0, {}]]]}, {"class_name": "SeparableConv2D", "config": {"name": "0_lf8_x1_conv_3x3_x2", "trainable": true, "dtype": "float32", "filters": 64, "kernel_size": [3, 3], "strides": [1, 1], "padding": "same", "data_format": "channels_last", "dilation_rate": [1, 1], "groups": 1, "activation": "relu", "use_bias": true, "kernel_initializer": {"class_name": "GlorotUniform", "config": {"seed": null}}, "bias_initializer": {"class_name": "Zeros", "config": {}}, "kernel_regularizer": null, "bias_regularizer": null, "activity_regularizer": null, "kernel_constraint": null, "bias_constraint": null, "depth_multiplier": 1, "depthwise_initializer": {"class_name": "GlorotUniform", "config": {"seed": null}}, "pointwise_initializer": {"class_name": "GlorotUniform", "config": {"seed": null}}, "depthwise_regularizer": null, "pointwise_regularizer": null, "depthwise_constraint": null, "pointwise_constraint": null}, "name": "0_lf8_x1_conv_3x3_x2", "inbound_nodes": [[["batch_normalization_25", 0, 0, {}]]]}, {"class_name": "BatchNormalization", "config": {"name": "batch_normalization_26", "trainable": true, "dtype": "float32", "axis": [3], "momentum": 0.99, "epsilon": 0.001, "center": true, "scale": true, "beta_initializer": {"class_name": "Zeros", "config": {}}, "gamma_initializer": {"class_name": "Ones", "config": {}}, "moving_mean_initializer": {"class_name": "Zeros", "config": {}}, "moving_variance_initializer": {"class_name": "Ones", "config": {}}, "beta_regularizer": null, "gamma_regularizer": null, "beta_constraint": null, "gamma_constraint": null}, "name": "batch_normalization_26", "inbound_nodes": [[["0_lf8_x1_conv_3x3_x2", 0, 0, {}]]]}, {"class_name": "SeparableConv2D", "config": {"name": "0_lf8_x1_conv_1x1_x3", "trainable": true, "dtype": "float32", "filters": 128, "kernel_size": [1, 1], "strides": [1, 1], "padding": "same", "data_format": "channels_last", "dilation_rate": [1, 1], "groups": 1, "activation": "relu", "use_bias": true, "kernel_initializer": {"class_name": "GlorotUniform", "config": {"seed": null}}, "bias_initializer": {"class_name": "Zeros", "config": {}}, "kernel_regularizer": null, "bias_regularizer": null, "activity_regularizer": null, "kernel_constraint": null, "bias_constraint": null, "depth_multiplier": 1, "depthwise_initializer": {"class_name": "GlorotUniform", "config": {"seed": null}}, "pointwise_initializer": {"class_name": "GlorotUniform", "config": {"seed": null}}, "depthwise_regularizer": null, "pointwise_regularizer": null, "depthwise_constraint": null, "pointwise_constraint": null}, "name": "0_lf8_x1_conv_1x1_x3", "inbound_nodes": [[["batch_normalization_26", 0, 0, {}]]]}, {"class_name": "BatchNormalization", "config": {"name": "batch_normalization_27", "trainable": true, "dtype": "float32", "axis": [3], "momentum": 0.99, "epsilon": 0.001, "center": true, "scale": true, "beta_initializer": {"class_name": "Zeros", "config": {}}, "gamma_initializer": {"class_name": "Ones", "config": {}}, "moving_mean_initializer": {"class_name": "Zeros", "config": {}}, "moving_variance_initializer": {"class_name": "Ones", "config": {}}, "beta_regularizer": null, "gamma_regularizer": null, "beta_constraint": null, "gamma_constraint": null}, "name": "batch_normalization_27", "inbound_nodes": [[["0_lf8_x1_conv_1x1_x3", 0, 0, {}]]]}, {"class_name": "Add", "config": {"name": "0_lf8_x1_residual", "trainable": true, "dtype": "float32"}, "name": "0_lf8_x1_residual", "inbound_nodes": [[["hg0_l8_residual", 0, 0, {}], ["batch_normalization_27", 0, 0, {}]]]}, {"class_name": "SeparableConv2D", "config": {"name": "0_lf8_x2_conv_1x1_x1", "trainable": true, "dtype": "float32", "filters": 64, "kernel_size": [1, 1], "strides": [1, 1], "padding": "same", "data_format": "channels_last", "dilation_rate": [1, 1], "groups": 1, "activation": "relu", "use_bias": true, "kernel_initializer": {"class_name": "GlorotUniform", "config": {"seed": null}}, "bias_initializer": {"class_name": "Zeros", "config": {}}, "kernel_regularizer": null, "bias_regularizer": null, "activity_regularizer": null, "kernel_constraint": null, "bias_constraint": null, "depth_multiplier": 1, "depthwise_initializer": {"class_name": "GlorotUniform", "config": {"seed": null}}, "pointwise_initializer": {"class_name": "GlorotUniform", "config": {"seed": null}}, "depthwise_regularizer": null, "pointwise_regularizer": null, "depthwise_constraint": null, "pointwise_constraint": null}, "name": "0_lf8_x2_conv_1x1_x1", "inbound_nodes": [[["0_lf8_x1_residual", 0, 0, {}]]]}, {"class_name": "BatchNormalization", "config": {"name": "batch_normalization_28", "trainable": true, "dtype": "float32", "axis": [3], "momentum": 0.99, "epsilon": 0.001, "center": true, "scale": true, "beta_initializer": {"class_name": "Zeros", "config": {}}, "gamma_initializer": {"class_name": "Ones", "config": {}}, "moving_mean_initializer": {"class_name": "Zeros", "config": {}}, "moving_variance_initializer": {"class_name": "Ones", "config": {}}, "beta_regularizer": null, "gamma_regularizer": null, "beta_constraint": null, "gamma_constraint": null}, "name": "batch_normalization_28", "inbound_nodes": [[["0_lf8_x2_conv_1x1_x1", 0, 0, {}]]]}, {"class_name": "SeparableConv2D", "config": {"name": "0_lf8_x2_conv_3x3_x2", "trainable": true, "dtype": "float32", "filters": 64, "kernel_size": [3, 3], "strides": [1, 1], "padding": "same", "data_format": "channels_last", "dilation_rate": [1, 1], "groups": 1, "activation": "relu", "use_bias": true, "kernel_initializer": {"class_name": "GlorotUniform", "config": {"seed": null}}, "bias_initializer": {"class_name": "Zeros", "config": {}}, "kernel_regularizer": null, "bias_regularizer": null, "activity_regularizer": null, "kernel_constraint": null, "bias_constraint": null, "depth_multiplier": 1, "depthwise_initializer": {"class_name": "GlorotUniform", "config": {"seed": null}}, "pointwise_initializer": {"class_name": "GlorotUniform", "config": {"seed": null}}, "depthwise_regularizer": null, "pointwise_regularizer": null, "depthwise_constraint": null, "pointwise_constraint": null}, "name": "0_lf8_x2_conv_3x3_x2", "inbound_nodes": [[["batch_normalization_28", 0, 0, {}]]]}, {"class_name": "BatchNormalization", "config": {"name": "batch_normalization_29", "trainable": true, "dtype": "float32", "axis": [3], "momentum": 0.99, "epsilon": 0.001, "center": true, "scale": true, "beta_initializer": {"class_name": "Zeros", "config": {}}, "gamma_initializer": {"class_name": "Ones", "config": {}}, "moving_mean_initializer": {"class_name": "Zeros", "config": {}}, "moving_variance_initializer": {"class_name": "Ones", "config": {}}, "beta_regularizer": null, "gamma_regularizer": null, "beta_constraint": null, "gamma_constraint": null}, "name": "batch_normalization_29", "inbound_nodes": [[["0_lf8_x2_conv_3x3_x2", 0, 0, {}]]]}, {"class_name": "SeparableConv2D", "config": {"name": "0_lf8_x2_conv_1x1_x3", "trainable": true, "dtype": "float32", "filters": 128, "kernel_size": [1, 1], "strides": [1, 1], "padding": "same", "data_format": "channels_last", "dilation_rate": [1, 1], "groups": 1, "activation": "relu", "use_bias": true, "kernel_initializer": {"class_name": "GlorotUniform", "config": {"seed": null}}, "bias_initializer": {"class_name": "Zeros", "config": {}}, "kernel_regularizer": null, "bias_regularizer": null, "activity_regularizer": null, "kernel_constraint": null, "bias_constraint": null, "depth_multiplier": 1, "depthwise_initializer": {"class_name": "GlorotUniform", "config": {"seed": null}}, "pointwise_initializer": {"class_name": "GlorotUniform", "config": {"seed": null}}, "depthwise_regularizer": null, "pointwise_regularizer": null, "depthwise_constraint": null, "pointwise_constraint": null}, "name": "0_lf8_x2_conv_1x1_x3", "inbound_nodes": [[["batch_normalization_29", 0, 0, {}]]]}, {"class_name": "BatchNormalization", "config": {"name": "batch_normalization_30", "trainable": true, "dtype": "float32", "axis": [3], "momentum": 0.99, "epsilon": 0.001, "center": true, "scale": true, "beta_initializer": {"class_name": "Zeros", "config": {}}, "gamma_initializer": {"class_name": "Ones", "config": {}}, "moving_mean_initializer": {"class_name": "Zeros", "config": {}}, "moving_variance_initializer": {"class_name": "Ones", "config": {}}, "beta_regularizer": null, "gamma_regularizer": null, "beta_constraint": null, "gamma_constraint": null}, "name": "batch_normalization_30", "inbound_nodes": [[["0_lf8_x2_conv_1x1_x3", 0, 0, {}]]]}, {"class_name": "Add", "config": {"name": "0_lf8_x2_residual", "trainable": true, "dtype": "float32"}, "name": "0_lf8_x2_residual", "inbound_nodes": [[["0_lf8_x1_residual", 0, 0, {}], ["batch_normalization_30", 0, 0, {}]]]}, {"class_name": "SeparableConv2D", "config": {"name": "0_lf8_x3_conv_1x1_x1", "trainable": true, "dtype": "float32", "filters": 64, "kernel_size": [1, 1], "strides": [1, 1], "padding": "same", "data_format": "channels_last", "dilation_rate": [1, 1], "groups": 1, "activation": "relu", "use_bias": true, "kernel_initializer": {"class_name": "GlorotUniform", "config": {"seed": null}}, "bias_initializer": {"class_name": "Zeros", "config": {}}, "kernel_regularizer": null, "bias_regularizer": null, "activity_regularizer": null, "kernel_constraint": null, "bias_constraint": null, "depth_multiplier": 1, "depthwise_initializer": {"class_name": "GlorotUniform", "config": {"seed": null}}, "pointwise_initializer": {"class_name": "GlorotUniform", "config": {"seed": null}}, "depthwise_regularizer": null, "pointwise_regularizer": null, "depthwise_constraint": null, "pointwise_constraint": null}, "name": "0_lf8_x3_conv_1x1_x1", "inbound_nodes": [[["0_lf8_x2_residual", 0, 0, {}]]]}, {"class_name": "SeparableConv2D", "config": {"name": "0_lf8_conv_1x1_x1", "trainable": true, "dtype": "float32", "filters": 64, "kernel_size": [1, 1], "strides": [1, 1], "padding": "same", "data_format": "channels_last", "dilation_rate": [1, 1], "groups": 1, "activation": "relu", "use_bias": true, "kernel_initializer": {"class_name": "GlorotUniform", "config": {"seed": null}}, "bias_initializer": {"class_name": "Zeros", "config": {}}, "kernel_regularizer": null, "bias_regularizer": null, "activity_regularizer": null, "kernel_constraint": null, "bias_constraint": null, "depth_multiplier": 1, "depthwise_initializer": {"class_name": "GlorotUniform", "config": {"seed": null}}, "pointwise_initializer": {"class_name": "GlorotUniform", "config": {"seed": null}}, "depthwise_regularizer": null, "pointwise_regularizer": null, "depthwise_constraint": null, "pointwise_constraint": null}, "name": "0_lf8_conv_1x1_x1", "inbound_nodes": [[["hg0_l8_residual", 0, 0, {}]]]}, {"class_name": "BatchNormalization", "config": {"name": "batch_normalization_31", "trainable": true, "dtype": "float32", "axis": [3], "momentum": 0.99, "epsilon": 0.001, "center": true, "scale": true, "beta_initializer": {"class_name": "Zeros", "config": {}}, "gamma_initializer": {"class_name": "Ones", "config": {}}, "moving_mean_initializer": {"class_name": "Zeros", "config": {}}, "moving_variance_initializer": {"class_name": "Ones", "config": {}}, "beta_regularizer": null, "gamma_regularizer": null, "beta_constraint": null, "gamma_constraint": null}, "name": "batch_normalization_31", "inbound_nodes": [[["0_lf8_x3_conv_1x1_x1", 0, 0, {}]]]}, {"class_name": "BatchNormalization", "config": {"name": "batch_normalization_22", "trainable": true, "dtype": "float32", "axis": [3], "momentum": 0.99, "epsilon": 0.001, "center": true, "scale": true, "beta_initializer": {"class_name": "Zeros", "config": {}}, "gamma_initializer": {"class_name": "Ones", "config": {}}, "moving_mean_initializer": {"class_name": "Zeros", "config": {}}, "moving_variance_initializer": {"class_name": "Ones", "config": {}}, "beta_regularizer": null, "gamma_regularizer": null, "beta_constraint": null, "gamma_constraint": null}, "name": "batch_normalization_22", "inbound_nodes": [[["0_lf8_conv_1x1_x1", 0, 0, {}]]]}, {"class_name": "SeparableConv2D", "config": {"name": "hg0_rf4_connect_conv_1x1_x1", "trainable": true, "dtype": "float32", "filters": 64, "kernel_size": [1, 1], "strides": [1, 1], "padding": "same", "data_format": "channels_last", "dilation_rate": [1, 1], "groups": 1, "activation": "relu", "use_bias": true, "kernel_initializer": {"class_name": "GlorotUniform", "config": {"seed": null}}, "bias_initializer": {"class_name": "Zeros", "config": {}}, "kernel_regularizer": null, "bias_regularizer": null, "activity_regularizer": null, "kernel_constraint": null, "bias_constraint": null, "depth_multiplier": 1, "depthwise_initializer": {"class_name": "GlorotUniform", "config": {"seed": null}}, "pointwise_initializer": {"class_name": "GlorotUniform", "config": {"seed": null}}, "depthwise_regularizer": null, "pointwise_regularizer": null, "depthwise_constraint": null, "pointwise_constraint": null}, "name": "hg0_rf4_connect_conv_1x1_x1", "inbound_nodes": [[["hg0_l4_residual", 0, 0, {}]]]}, {"class_name": "SeparableConv2D", "config": {"name": "0_lf8_x3_conv_3x3_x2", "trainable": true, "dtype": "float32", "filters": 64, "kernel_size": [3, 3], "strides": [1, 1], "padding": "same", "data_format": "channels_last", "dilation_rate": [1, 1], "groups": 1, "activation": "relu", "use_bias": true, "kernel_initializer": {"class_name": "GlorotUniform", "config": {"seed": null}}, "bias_initializer": {"class_name": "Zeros", "config": {}}, "kernel_regularizer": null, "bias_regularizer": null, "activity_regularizer": null, "kernel_constraint": null, "bias_constraint": null, "depth_multiplier": 1, "depthwise_initializer": {"class_name": "GlorotUniform", "config": {"seed": null}}, "pointwise_initializer": {"class_name": "GlorotUniform", "config": {"seed": null}}, "depthwise_regularizer": null, "pointwise_regularizer": null, "depthwise_constraint": null, "pointwise_constraint": null}, "name": "0_lf8_x3_conv_3x3_x2", "inbound_nodes": [[["batch_normalization_31", 0, 0, {}]]]}, {"class_name": "SeparableConv2D", "config": {"name": "0_lf8_conv_3x3_x2", "trainable": true, "dtype": "float32", "filters": 64, "kernel_size": [3, 3], "strides": [1, 1], "padding": "same", "data_format": "channels_last", "dilation_rate": [1, 1], "groups": 1, "activation": "relu", "use_bias": true, "kernel_initializer": {"class_name": "GlorotUniform", "config": {"seed": null}}, "bias_initializer": {"class_name": "Zeros", "config": {}}, "kernel_regularizer": null, "bias_regularizer": null, "activity_regularizer": null, "kernel_constraint": null, "bias_constraint": null, "depth_multiplier": 1, "depthwise_initializer": {"class_name": "GlorotUniform", "config": {"seed": null}}, "pointwise_initializer": {"class_name": "GlorotUniform", "config": {"seed": null}}, "depthwise_regularizer": null, "pointwise_regularizer": null, "depthwise_constraint": null, "pointwise_constraint": null}, "name": "0_lf8_conv_3x3_x2", "inbound_nodes": [[["batch_normalization_22", 0, 0, {}]]]}, {"class_name": "BatchNormalization", "config": {"name": "batch_normalization_34", "trainable": true, "dtype": "float32", "axis": [3], "momentum": 0.99, "epsilon": 0.001, "center": true, "scale": true, "beta_initializer": {"class_name": "Zeros", "config": {}}, "gamma_initializer": {"class_name": "Ones", "config": {}}, "moving_mean_initializer": {"class_name": "Zeros", "config": {}}, "moving_variance_initializer": {"class_name": "Ones", "config": {}}, "beta_regularizer": null, "gamma_regularizer": null, "beta_constraint": null, "gamma_constraint": null}, "name": "batch_normalization_34", "inbound_nodes": [[["hg0_rf4_connect_conv_1x1_x1", 0, 0, {}]]]}, {"class_name": "BatchNormalization", "config": {"name": "batch_normalization_32", "trainable": true, "dtype": "float32", "axis": [3], "momentum": 0.99, "epsilon": 0.001, "center": true, "scale": true, "beta_initializer": {"class_name": "Zeros", "config": {}}, "gamma_initializer": {"class_name": "Ones", "config": {}}, "moving_mean_initializer": {"class_name": "Zeros", "config": {}}, "moving_variance_initializer": {"class_name": "Ones", "config": {}}, "beta_regularizer": null, "gamma_regularizer": null, "beta_constraint": null, "gamma_constraint": null}, "name": "batch_normalization_32", "inbound_nodes": [[["0_lf8_x3_conv_3x3_x2", 0, 0, {}]]]}, {"class_name": "BatchNormalization", "config": {"name": "batch_normalization_23", "trainable": true, "dtype": "float32", "axis": [3], "momentum": 0.99, "epsilon": 0.001, "center": true, "scale": true, "beta_initializer": {"class_name": "Zeros", "config": {}}, "gamma_initializer": {"class_name": "Ones", "config": {}}, "moving_mean_initializer": {"class_name": "Zeros", "config": {}}, "moving_variance_initializer": {"class_name": "Ones", "config": {}}, "beta_regularizer": null, "gamma_regularizer": null, "beta_constraint": null, "gamma_constraint": null}, "name": "batch_normalization_23", "inbound_nodes": [[["0_lf8_conv_3x3_x2", 0, 0, {}]]]}, {"class_name": "SeparableConv2D", "config": {"name": "hg0_rf4_connect_conv_3x3_x2", "trainable": true, "dtype": "float32", "filters": 64, "kernel_size": [3, 3], "strides": [1, 1], "padding": "same", "data_format": "channels_last", "dilation_rate": [1, 1], "groups": 1, "activation": "relu", "use_bias": true, "kernel_initializer": {"class_name": "GlorotUniform", "config": {"seed": null}}, "bias_initializer": {"class_name": "Zeros", "config": {}}, "kernel_regularizer": null, "bias_regularizer": null, "activity_regularizer": null, "kernel_constraint": null, "bias_constraint": null, "depth_multiplier": 1, "depthwise_initializer": {"class_name": "GlorotUniform", "config": {"seed": null}}, "pointwise_initializer": {"class_name": "GlorotUniform", "config": {"seed": null}}, "depthwise_regularizer": null, "pointwise_regularizer": null, "depthwise_constraint": null, "pointwise_constraint": null}, "name": "hg0_rf4_connect_conv_3x3_x2", "inbound_nodes": [[["batch_normalization_34", 0, 0, {}]]]}, {"class_name": "SeparableConv2D", "config": {"name": "0_lf8_x3_conv_1x1_x3", "trainable": true, "dtype": "float32", "filters": 128, "kernel_size": [1, 1], "strides": [1, 1], "padding": "same", "data_format": "channels_last", "dilation_rate": [1, 1], "groups": 1, "activation": "relu", "use_bias": true, "kernel_initializer": {"class_name": "GlorotUniform", "config": {"seed": null}}, "bias_initializer": {"class_name": "Zeros", "config": {}}, "kernel_regularizer": null, "bias_regularizer": null, "activity_regularizer": null, "kernel_constraint": null, "bias_constraint": null, "depth_multiplier": 1, "depthwise_initializer": {"class_name": "GlorotUniform", "config": {"seed": null}}, "pointwise_initializer": {"class_name": "GlorotUniform", "config": {"seed": null}}, "depthwise_regularizer": null, "pointwise_regularizer": null, "depthwise_constraint": null, "pointwise_constraint": null}, "name": "0_lf8_x3_conv_1x1_x3", "inbound_nodes": [[["batch_normalization_32", 0, 0, {}]]]}, {"class_name": "SeparableConv2D", "config": {"name": "0_lf8_conv_1x1_x3", "trainable": true, "dtype": "float32", "filters": 128, "kernel_size": [1, 1], "strides": [1, 1], "padding": "same", "data_format": "channels_last", "dilation_rate": [1, 1], "groups": 1, "activation": "relu", "use_bias": true, "kernel_initializer": {"class_name": "GlorotUniform", "config": {"seed": null}}, "bias_initializer": {"class_name": "Zeros", "config": {}}, "kernel_regularizer": null, "bias_regularizer": null, "activity_regularizer": null, "kernel_constraint": null, "bias_constraint": null, "depth_multiplier": 1, "depthwise_initializer": {"class_name": "GlorotUniform", "config": {"seed": null}}, "pointwise_initializer": {"class_name": "GlorotUniform", "config": {"seed": null}}, "depthwise_regularizer": null, "pointwise_regularizer": null, "depthwise_constraint": null, "pointwise_constraint": null}, "name": "0_lf8_conv_1x1_x3", "inbound_nodes": [[["batch_normalization_23", 0, 0, {}]]]}, {"class_name": "BatchNormalization", "config": {"name": "batch_normalization_35", "trainable": true, "dtype": "float32", "axis": [3], "momentum": 0.99, "epsilon": 0.001, "center": true, "scale": true, "beta_initializer": {"class_name": "Zeros", "config": {}}, "gamma_initializer": {"class_name": "Ones", "config": {}}, "moving_mean_initializer": {"class_name": "Zeros", "config": {}}, "moving_variance_initializer": {"class_name": "Ones", "config": {}}, "beta_regularizer": null, "gamma_regularizer": null, "beta_constraint": null, "gamma_constraint": null}, "name": "batch_normalization_35", "inbound_nodes": [[["hg0_rf4_connect_conv_3x3_x2", 0, 0, {}]]]}, {"class_name": "BatchNormalization", "config": {"name": "batch_normalization_33", "trainable": true, "dtype": "float32", "axis": [3], "momentum": 0.99, "epsilon": 0.001, "center": true, "scale": true, "beta_initializer": {"class_name": "Zeros", "config": {}}, "gamma_initializer": {"class_name": "Ones", "config": {}}, "moving_mean_initializer": {"class_name": "Zeros", "config": {}}, "moving_variance_initializer": {"class_name": "Ones", "config": {}}, "beta_regularizer": null, "gamma_regularizer": null, "beta_constraint": null, "gamma_constraint": null}, "name": "batch_normalization_33", "inbound_nodes": [[["0_lf8_x3_conv_1x1_x3", 0, 0, {}]]]}, {"class_name": "BatchNormalization", "config": {"name": "batch_normalization_24", "trainable": true, "dtype": "float32", "axis": [3], "momentum": 0.99, "epsilon": 0.001, "center": true, "scale": true, "beta_initializer": {"class_name": "Zeros", "config": {}}, "gamma_initializer": {"class_name": "Ones", "config": {}}, "moving_mean_initializer": {"class_name": "Zeros", "config": {}}, "moving_variance_initializer": {"class_name": "Ones", "config": {}}, "beta_regularizer": null, "gamma_regularizer": null, "beta_constraint": null, "gamma_constraint": null}, "name": "batch_normalization_24", "inbound_nodes": [[["0_lf8_conv_1x1_x3", 0, 0, {}]]]}, {"class_name": "SeparableConv2D", "config": {"name": "hg0_rf4_connect_conv_1x1_x3", "trainable": true, "dtype": "float32", "filters": 128, "kernel_size": [1, 1], "strides": [1, 1], "padding": "same", "data_format": "channels_last", "dilation_rate": [1, 1], "groups": 1, "activation": "relu", "use_bias": true, "kernel_initializer": {"class_name": "GlorotUniform", "config": {"seed": null}}, "bias_initializer": {"class_name": "Zeros", "config": {}}, "kernel_regularizer": null, "bias_regularizer": null, "activity_regularizer": null, "kernel_constraint": null, "bias_constraint": null, "depth_multiplier": 1, "depthwise_initializer": {"class_name": "GlorotUniform", "config": {"seed": null}}, "pointwise_initializer": {"class_name": "GlorotUniform", "config": {"seed": null}}, "depthwise_regularizer": null, "pointwise_regularizer": null, "depthwise_constraint": null, "pointwise_constraint": null}, "name": "hg0_rf4_connect_conv_1x1_x3", "inbound_nodes": [[["batch_normalization_35", 0, 0, {}]]]}, {"class_name": "Add", "config": {"name": "0_lf8_x3_residual", "trainable": true, "dtype": "float32"}, "name": "0_lf8_x3_residual", "inbound_nodes": [[["0_lf8_x2_residual", 0, 0, {}], ["batch_normalization_33", 0, 0, {}]]]}, {"class_name": "Add", "config": {"name": "0_lf8_residual", "trainable": true, "dtype": "float32"}, "name": "0_lf8_residual", "inbound_nodes": [[["hg0_l8_residual", 0, 0, {}], ["batch_normalization_24", 0, 0, {}]]]}, {"class_name": "BatchNormalization", "config": {"name": "batch_normalization_36", "trainable": true, "dtype": "float32", "axis": [3], "momentum": 0.99, "epsilon": 0.001, "center": true, "scale": true, "beta_initializer": {"class_name": "Zeros", "config": {}}, "gamma_initializer": {"class_name": "Ones", "config": {}}, "moving_mean_initializer": {"class_name": "Zeros", "config": {}}, "moving_variance_initializer": {"class_name": "Ones", "config": {}}, "beta_regularizer": null, "gamma_regularizer": null, "beta_constraint": null, "gamma_constraint": null}, "name": "batch_normalization_36", "inbound_nodes": [[["hg0_rf4_connect_conv_1x1_x3", 0, 0, {}]]]}, {"class_name": "Add", "config": {"name": "add", "trainable": true, "dtype": "float32"}, "name": "add", "inbound_nodes": [[["0_lf8_x3_residual", 0, 0, {}], ["0_lf8_residual", 0, 0, {}]]]}, {"class_name": "Add", "config": {"name": "hg0_rf4_connect_residual", "trainable": true, "dtype": "float32"}, "name": "hg0_rf4_connect_residual", "inbound_nodes": [[["hg0_l4_residual", 0, 0, {}], ["batch_normalization_36", 0, 0, {}]]]}, {"class_name": "UpSampling2D", "config": {"name": "up_sampling2d", "trainable": true, "dtype": "float32", "size": [2, 2], "data_format": "channels_last", "interpolation": "nearest"}, "name": "up_sampling2d", "inbound_nodes": [[["add", 0, 0, {}]]]}, {"class_name": "Add", "config": {"name": "add_1", "trainable": true, "dtype": "float32"}, "name": "add_1", "inbound_nodes": [[["hg0_rf4_connect_residual", 0, 0, {}], ["up_sampling2d", 0, 0, {}]]]}, {"class_name": "SeparableConv2D", "config": {"name": "hg0_rf4_connect_conv_conv_1x1_x1", "trainable": true, "dtype": "float32", "filters": 64, "kernel_size": [1, 1], "strides": [1, 1], "padding": "same", "data_format": "channels_last", "dilation_rate": [1, 1], "groups": 1, "activation": "relu", "use_bias": true, "kernel_initializer": {"class_name": "GlorotUniform", "config": {"seed": null}}, "bias_initializer": {"class_name": "Zeros", "config": {}}, "kernel_regularizer": null, "bias_regularizer": null, "activity_regularizer": null, "kernel_constraint": null, "bias_constraint": null, "depth_multiplier": 1, "depthwise_initializer": {"class_name": "GlorotUniform", "config": {"seed": null}}, "pointwise_initializer": {"class_name": "GlorotUniform", "config": {"seed": null}}, "depthwise_regularizer": null, "pointwise_regularizer": null, "depthwise_constraint": null, "pointwise_constraint": null}, "name": "hg0_rf4_connect_conv_conv_1x1_x1", "inbound_nodes": [[["add_1", 0, 0, {}]]]}, {"class_name": "SeparableConv2D", "config": {"name": "hg0_rf2_connect_conv_1x1_x1", "trainable": true, "dtype": "float32", "filters": 64, "kernel_size": [1, 1], "strides": [1, 1], "padding": "same", "data_format": "channels_last", "dilation_rate": [1, 1], "groups": 1, "activation": "relu", "use_bias": true, "kernel_initializer": {"class_name": "GlorotUniform", "config": {"seed": null}}, "bias_initializer": {"class_name": "Zeros", "config": {}}, "kernel_regularizer": null, "bias_regularizer": null, "activity_regularizer": null, "kernel_constraint": null, "bias_constraint": null, "depth_multiplier": 1, "depthwise_initializer": {"class_name": "GlorotUniform", "config": {"seed": null}}, "pointwise_initializer": {"class_name": "GlorotUniform", "config": {"seed": null}}, "depthwise_regularizer": null, "pointwise_regularizer": null, "depthwise_constraint": null, "pointwise_constraint": null}, "name": "hg0_rf2_connect_conv_1x1_x1", "inbound_nodes": [[["hg0_l2_residual", 0, 0, {}]]]}, {"class_name": "BatchNormalization", "config": {"name": "batch_normalization_37", "trainable": true, "dtype": "float32", "axis": [3], "momentum": 0.99, "epsilon": 0.001, "center": true, "scale": true, "beta_initializer": {"class_name": "Zeros", "config": {}}, "gamma_initializer": {"class_name": "Ones", "config": {}}, "moving_mean_initializer": {"class_name": "Zeros", "config": {}}, "moving_variance_initializer": {"class_name": "Ones", "config": {}}, "beta_regularizer": null, "gamma_regularizer": null, "beta_constraint": null, "gamma_constraint": null}, "name": "batch_normalization_37", "inbound_nodes": [[["hg0_rf4_connect_conv_conv_1x1_x1", 0, 0, {}]]]}, {"class_name": "BatchNormalization", "config": {"name": "batch_normalization_40", "trainable": true, "dtype": "float32", "axis": [3], "momentum": 0.99, "epsilon": 0.001, "center": true, "scale": true, "beta_initializer": {"class_name": "Zeros", "config": {}}, "gamma_initializer": {"class_name": "Ones", "config": {}}, "moving_mean_initializer": {"class_name": "Zeros", "config": {}}, "moving_variance_initializer": {"class_name": "Ones", "config": {}}, "beta_regularizer": null, "gamma_regularizer": null, "beta_constraint": null, "gamma_constraint": null}, "name": "batch_normalization_40", "inbound_nodes": [[["hg0_rf2_connect_conv_1x1_x1", 0, 0, {}]]]}, {"class_name": "SeparableConv2D", "config": {"name": "hg0_rf4_connect_conv_conv_3x3_x2", "trainable": true, "dtype": "float32", "filters": 64, "kernel_size": [3, 3], "strides": [1, 1], "padding": "same", "data_format": "channels_last", "dilation_rate": [1, 1], "groups": 1, "activation": "relu", "use_bias": true, "kernel_initializer": {"class_name": "GlorotUniform", "config": {"seed": null}}, "bias_initializer": {"class_name": "Zeros", "config": {}}, "kernel_regularizer": null, "bias_regularizer": null, "activity_regularizer": null, "kernel_constraint": null, "bias_constraint": null, "depth_multiplier": 1, "depthwise_initializer": {"class_name": "GlorotUniform", "config": {"seed": null}}, "pointwise_initializer": {"class_name": "GlorotUniform", "config": {"seed": null}}, "depthwise_regularizer": null, "pointwise_regularizer": null, "depthwise_constraint": null, "pointwise_constraint": null}, "name": "hg0_rf4_connect_conv_conv_3x3_x2", "inbound_nodes": [[["batch_normalization_37", 0, 0, {}]]]}, {"class_name": "SeparableConv2D", "config": {"name": "hg0_rf2_connect_conv_3x3_x2", "trainable": true, "dtype": "float32", "filters": 64, "kernel_size": [3, 3], "strides": [1, 1], "padding": "same", "data_format": "channels_last", "dilation_rate": [1, 1], "groups": 1, "activation": "relu", "use_bias": true, "kernel_initializer": {"class_name": "GlorotUniform", "config": {"seed": null}}, "bias_initializer": {"class_name": "Zeros", "config": {}}, "kernel_regularizer": null, "bias_regularizer": null, "activity_regularizer": null, "kernel_constraint": null, "bias_constraint": null, "depth_multiplier": 1, "depthwise_initializer": {"class_name": "GlorotUniform", "config": {"seed": null}}, "pointwise_initializer": {"class_name": "GlorotUniform", "config": {"seed": null}}, "depthwise_regularizer": null, "pointwise_regularizer": null, "depthwise_constraint": null, "pointwise_constraint": null}, "name": "hg0_rf2_connect_conv_3x3_x2", "inbound_nodes": [[["batch_normalization_40", 0, 0, {}]]]}, {"class_name": "BatchNormalization", "config": {"name": "batch_normalization_38", "trainable": true, "dtype": "float32", "axis": [3], "momentum": 0.99, "epsilon": 0.001, "center": true, "scale": true, "beta_initializer": {"class_name": "Zeros", "config": {}}, "gamma_initializer": {"class_name": "Ones", "config": {}}, "moving_mean_initializer": {"class_name": "Zeros", "config": {}}, "moving_variance_initializer": {"class_name": "Ones", "config": {}}, "beta_regularizer": null, "gamma_regularizer": null, "beta_constraint": null, "gamma_constraint": null}, "name": "batch_normalization_38", "inbound_nodes": [[["hg0_rf4_connect_conv_conv_3x3_x2", 0, 0, {}]]]}, {"class_name": "BatchNormalization", "config": {"name": "batch_normalization_41", "trainable": true, "dtype": "float32", "axis": [3], "momentum": 0.99, "epsilon": 0.001, "center": true, "scale": true, "beta_initializer": {"class_name": "Zeros", "config": {}}, "gamma_initializer": {"class_name": "Ones", "config": {}}, "moving_mean_initializer": {"class_name": "Zeros", "config": {}}, "moving_variance_initializer": {"class_name": "Ones", "config": {}}, "beta_regularizer": null, "gamma_regularizer": null, "beta_constraint": null, "gamma_constraint": null}, "name": "batch_normalization_41", "inbound_nodes": [[["hg0_rf2_connect_conv_3x3_x2", 0, 0, {}]]]}, {"class_name": "SeparableConv2D", "config": {"name": "hg0_rf4_connect_conv_conv_1x1_x3", "trainable": true, "dtype": "float32", "filters": 128, "kernel_size": [1, 1], "strides": [1, 1], "padding": "same", "data_format": "channels_last", "dilation_rate": [1, 1], "groups": 1, "activation": "relu", "use_bias": true, "kernel_initializer": {"class_name": "GlorotUniform", "config": {"seed": null}}, "bias_initializer": {"class_name": "Zeros", "config": {}}, "kernel_regularizer": null, "bias_regularizer": null, "activity_regularizer": null, "kernel_constraint": null, "bias_constraint": null, "depth_multiplier": 1, "depthwise_initializer": {"class_name": "GlorotUniform", "config": {"seed": null}}, "pointwise_initializer": {"class_name": "GlorotUniform", "config": {"seed": null}}, "depthwise_regularizer": null, "pointwise_regularizer": null, "depthwise_constraint": null, "pointwise_constraint": null}, "name": "hg0_rf4_connect_conv_conv_1x1_x3", "inbound_nodes": [[["batch_normalization_38", 0, 0, {}]]]}, {"class_name": "SeparableConv2D", "config": {"name": "hg0_rf2_connect_conv_1x1_x3", "trainable": true, "dtype": "float32", "filters": 128, "kernel_size": [1, 1], "strides": [1, 1], "padding": "same", "data_format": "channels_last", "dilation_rate": [1, 1], "groups": 1, "activation": "relu", "use_bias": true, "kernel_initializer": {"class_name": "GlorotUniform", "config": {"seed": null}}, "bias_initializer": {"class_name": "Zeros", "config": {}}, "kernel_regularizer": null, "bias_regularizer": null, "activity_regularizer": null, "kernel_constraint": null, "bias_constraint": null, "depth_multiplier": 1, "depthwise_initializer": {"class_name": "GlorotUniform", "config": {"seed": null}}, "pointwise_initializer": {"class_name": "GlorotUniform", "config": {"seed": null}}, "depthwise_regularizer": null, "pointwise_regularizer": null, "depthwise_constraint": null, "pointwise_constraint": null}, "name": "hg0_rf2_connect_conv_1x1_x3", "inbound_nodes": [[["batch_normalization_41", 0, 0, {}]]]}, {"class_name": "BatchNormalization", "config": {"name": "batch_normalization_39", "trainable": true, "dtype": "float32", "axis": [3], "momentum": 0.99, "epsilon": 0.001, "center": true, "scale": true, "beta_initializer": {"class_name": "Zeros", "config": {}}, "gamma_initializer": {"class_name": "Ones", "config": {}}, "moving_mean_initializer": {"class_name": "Zeros", "config": {}}, "moving_variance_initializer": {"class_name": "Ones", "config": {}}, "beta_regularizer": null, "gamma_regularizer": null, "beta_constraint": null, "gamma_constraint": null}, "name": "batch_normalization_39", "inbound_nodes": [[["hg0_rf4_connect_conv_conv_1x1_x3", 0, 0, {}]]]}, {"class_name": "BatchNormalization", "config": {"name": "batch_normalization_42", "trainable": true, "dtype": "float32", "axis": [3], "momentum": 0.99, "epsilon": 0.001, "center": true, "scale": true, "beta_initializer": {"class_name": "Zeros", "config": {}}, "gamma_initializer": {"class_name": "Ones", "config": {}}, "moving_mean_initializer": {"class_name": "Zeros", "config": {}}, "moving_variance_initializer": {"class_name": "Ones", "config": {}}, "beta_regularizer": null, "gamma_regularizer": null, "beta_constraint": null, "gamma_constraint": null}, "name": "batch_normalization_42", "inbound_nodes": [[["hg0_rf2_connect_conv_1x1_x3", 0, 0, {}]]]}, {"class_name": "Add", "config": {"name": "hg0_rf4_connect_conv_residual", "trainable": true, "dtype": "float32"}, "name": "hg0_rf4_connect_conv_residual", "inbound_nodes": [[["add_1", 0, 0, {}], ["batch_normalization_39", 0, 0, {}]]]}, {"class_name": "Add", "config": {"name": "hg0_rf2_connect_residual", "trainable": true, "dtype": "float32"}, "name": "hg0_rf2_connect_residual", "inbound_nodes": [[["hg0_l2_residual", 0, 0, {}], ["batch_normalization_42", 0, 0, {}]]]}, {"class_name": "UpSampling2D", "config": {"name": "up_sampling2d_1", "trainable": true, "dtype": "float32", "size": [2, 2], "data_format": "channels_last", "interpolation": "nearest"}, "name": "up_sampling2d_1", "inbound_nodes": [[["hg0_rf4_connect_conv_residual", 0, 0, {}]]]}, {"class_name": "Add", "config": {"name": "add_2", "trainable": true, "dtype": "float32"}, "name": "add_2", "inbound_nodes": [[["hg0_rf2_connect_residual", 0, 0, {}], ["up_sampling2d_1", 0, 0, {}]]]}, {"class_name": "SeparableConv2D", "config": {"name": "hg0_rf2_connect_conv_conv_1x1_x1", "trainable": true, "dtype": "float32", "filters": 64, "kernel_size": [1, 1], "strides": [1, 1], "padding": "same", "data_format": "channels_last", "dilation_rate": [1, 1], "groups": 1, "activation": "relu", "use_bias": true, "kernel_initializer": {"class_name": "GlorotUniform", "config": {"seed": null}}, "bias_initializer": {"class_name": "Zeros", "config": {}}, "kernel_regularizer": null, "bias_regularizer": null, "activity_regularizer": null, "kernel_constraint": null, "bias_constraint": null, "depth_multiplier": 1, "depthwise_initializer": {"class_name": "GlorotUniform", "config": {"seed": null}}, "pointwise_initializer": {"class_name": "GlorotUniform", "config": {"seed": null}}, "depthwise_regularizer": null, "pointwise_regularizer": null, "depthwise_constraint": null, "pointwise_constraint": null}, "name": "hg0_rf2_connect_conv_conv_1x1_x1", "inbound_nodes": [[["add_2", 0, 0, {}]]]}, {"class_name": "SeparableConv2D", "config": {"name": "hg0_rf1_connect_conv_1x1_x1", "trainable": true, "dtype": "float32", "filters": 64, "kernel_size": [1, 1], "strides": [1, 1], "padding": "same", "data_format": "channels_last", "dilation_rate": [1, 1], "groups": 1, "activation": "relu", "use_bias": true, "kernel_initializer": {"class_name": "GlorotUniform", "config": {"seed": null}}, "bias_initializer": {"class_name": "Zeros", "config": {}}, "kernel_regularizer": null, "bias_regularizer": null, "activity_regularizer": null, "kernel_constraint": null, "bias_constraint": null, "depth_multiplier": 1, "depthwise_initializer": {"class_name": "GlorotUniform", "config": {"seed": null}}, "pointwise_initializer": {"class_name": "GlorotUniform", "config": {"seed": null}}, "depthwise_regularizer": null, "pointwise_regularizer": null, "depthwise_constraint": null, "pointwise_constraint": null}, "name": "hg0_rf1_connect_conv_1x1_x1", "inbound_nodes": [[["hg0_l1_residual", 0, 0, {}]]]}, {"class_name": "BatchNormalization", "config": {"name": "batch_normalization_43", "trainable": true, "dtype": "float32", "axis": [3], "momentum": 0.99, "epsilon": 0.001, "center": true, "scale": true, "beta_initializer": {"class_name": "Zeros", "config": {}}, "gamma_initializer": {"class_name": "Ones", "config": {}}, "moving_mean_initializer": {"class_name": "Zeros", "config": {}}, "moving_variance_initializer": {"class_name": "Ones", "config": {}}, "beta_regularizer": null, "gamma_regularizer": null, "beta_constraint": null, "gamma_constraint": null}, "name": "batch_normalization_43", "inbound_nodes": [[["hg0_rf2_connect_conv_conv_1x1_x1", 0, 0, {}]]]}, {"class_name": "BatchNormalization", "config": {"name": "batch_normalization_46", "trainable": true, "dtype": "float32", "axis": [3], "momentum": 0.99, "epsilon": 0.001, "center": true, "scale": true, "beta_initializer": {"class_name": "Zeros", "config": {}}, "gamma_initializer": {"class_name": "Ones", "config": {}}, "moving_mean_initializer": {"class_name": "Zeros", "config": {}}, "moving_variance_initializer": {"class_name": "Ones", "config": {}}, "beta_regularizer": null, "gamma_regularizer": null, "beta_constraint": null, "gamma_constraint": null}, "name": "batch_normalization_46", "inbound_nodes": [[["hg0_rf1_connect_conv_1x1_x1", 0, 0, {}]]]}, {"class_name": "SeparableConv2D", "config": {"name": "hg0_rf2_connect_conv_conv_3x3_x2", "trainable": true, "dtype": "float32", "filters": 64, "kernel_size": [3, 3], "strides": [1, 1], "padding": "same", "data_format": "channels_last", "dilation_rate": [1, 1], "groups": 1, "activation": "relu", "use_bias": true, "kernel_initializer": {"class_name": "GlorotUniform", "config": {"seed": null}}, "bias_initializer": {"class_name": "Zeros", "config": {}}, "kernel_regularizer": null, "bias_regularizer": null, "activity_regularizer": null, "kernel_constraint": null, "bias_constraint": null, "depth_multiplier": 1, "depthwise_initializer": {"class_name": "GlorotUniform", "config": {"seed": null}}, "pointwise_initializer": {"class_name": "GlorotUniform", "config": {"seed": null}}, "depthwise_regularizer": null, "pointwise_regularizer": null, "depthwise_constraint": null, "pointwise_constraint": null}, "name": "hg0_rf2_connect_conv_conv_3x3_x2", "inbound_nodes": [[["batch_normalization_43", 0, 0, {}]]]}, {"class_name": "SeparableConv2D", "config": {"name": "hg0_rf1_connect_conv_3x3_x2", "trainable": true, "dtype": "float32", "filters": 64, "kernel_size": [3, 3], "strides": [1, 1], "padding": "same", "data_format": "channels_last", "dilation_rate": [1, 1], "groups": 1, "activation": "relu", "use_bias": true, "kernel_initializer": {"class_name": "GlorotUniform", "config": {"seed": null}}, "bias_initializer": {"class_name": "Zeros", "config": {}}, "kernel_regularizer": null, "bias_regularizer": null, "activity_regularizer": null, "kernel_constraint": null, "bias_constraint": null, "depth_multiplier": 1, "depthwise_initializer": {"class_name": "GlorotUniform", "config": {"seed": null}}, "pointwise_initializer": {"class_name": "GlorotUniform", "config": {"seed": null}}, "depthwise_regularizer": null, "pointwise_regularizer": null, "depthwise_constraint": null, "pointwise_constraint": null}, "name": "hg0_rf1_connect_conv_3x3_x2", "inbound_nodes": [[["batch_normalization_46", 0, 0, {}]]]}, {"class_name": "BatchNormalization", "config": {"name": "batch_normalization_44", "trainable": true, "dtype": "float32", "axis": [3], "momentum": 0.99, "epsilon": 0.001, "center": true, "scale": true, "beta_initializer": {"class_name": "Zeros", "config": {}}, "gamma_initializer": {"class_name": "Ones", "config": {}}, "moving_mean_initializer": {"class_name": "Zeros", "config": {}}, "moving_variance_initializer": {"class_name": "Ones", "config": {}}, "beta_regularizer": null, "gamma_regularizer": null, "beta_constraint": null, "gamma_constraint": null}, "name": "batch_normalization_44", "inbound_nodes": [[["hg0_rf2_connect_conv_conv_3x3_x2", 0, 0, {}]]]}, {"class_name": "BatchNormalization", "config": {"name": "batch_normalization_47", "trainable": true, "dtype": "float32", "axis": [3], "momentum": 0.99, "epsilon": 0.001, "center": true, "scale": true, "beta_initializer": {"class_name": "Zeros", "config": {}}, "gamma_initializer": {"class_name": "Ones", "config": {}}, "moving_mean_initializer": {"class_name": "Zeros", "config": {}}, "moving_variance_initializer": {"class_name": "Ones", "config": {}}, "beta_regularizer": null, "gamma_regularizer": null, "beta_constraint": null, "gamma_constraint": null}, "name": "batch_normalization_47", "inbound_nodes": [[["hg0_rf1_connect_conv_3x3_x2", 0, 0, {}]]]}, {"class_name": "SeparableConv2D", "config": {"name": "hg0_rf2_connect_conv_conv_1x1_x3", "trainable": true, "dtype": "float32", "filters": 128, "kernel_size": [1, 1], "strides": [1, 1], "padding": "same", "data_format": "channels_last", "dilation_rate": [1, 1], "groups": 1, "activation": "relu", "use_bias": true, "kernel_initializer": {"class_name": "GlorotUniform", "config": {"seed": null}}, "bias_initializer": {"class_name": "Zeros", "config": {}}, "kernel_regularizer": null, "bias_regularizer": null, "activity_regularizer": null, "kernel_constraint": null, "bias_constraint": null, "depth_multiplier": 1, "depthwise_initializer": {"class_name": "GlorotUniform", "config": {"seed": null}}, "pointwise_initializer": {"class_name": "GlorotUniform", "config": {"seed": null}}, "depthwise_regularizer": null, "pointwise_regularizer": null, "depthwise_constraint": null, "pointwise_constraint": null}, "name": "hg0_rf2_connect_conv_conv_1x1_x3", "inbound_nodes": [[["batch_normalization_44", 0, 0, {}]]]}, {"class_name": "SeparableConv2D", "config": {"name": "hg0_rf1_connect_conv_1x1_x3", "trainable": true, "dtype": "float32", "filters": 128, "kernel_size": [1, 1], "strides": [1, 1], "padding": "same", "data_format": "channels_last", "dilation_rate": [1, 1], "groups": 1, "activation": "relu", "use_bias": true, "kernel_initializer": {"class_name": "GlorotUniform", "config": {"seed": null}}, "bias_initializer": {"class_name": "Zeros", "config": {}}, "kernel_regularizer": null, "bias_regularizer": null, "activity_regularizer": null, "kernel_constraint": null, "bias_constraint": null, "depth_multiplier": 1, "depthwise_initializer": {"class_name": "GlorotUniform", "config": {"seed": null}}, "pointwise_initializer": {"class_name": "GlorotUniform", "config": {"seed": null}}, "depthwise_regularizer": null, "pointwise_regularizer": null, "depthwise_constraint": null, "pointwise_constraint": null}, "name": "hg0_rf1_connect_conv_1x1_x3", "inbound_nodes": [[["batch_normalization_47", 0, 0, {}]]]}, {"class_name": "BatchNormalization", "config": {"name": "batch_normalization_45", "trainable": true, "dtype": "float32", "axis": [3], "momentum": 0.99, "epsilon": 0.001, "center": true, "scale": true, "beta_initializer": {"class_name": "Zeros", "config": {}}, "gamma_initializer": {"class_name": "Ones", "config": {}}, "moving_mean_initializer": {"class_name": "Zeros", "config": {}}, "moving_variance_initializer": {"class_name": "Ones", "config": {}}, "beta_regularizer": null, "gamma_regularizer": null, "beta_constraint": null, "gamma_constraint": null}, "name": "batch_normalization_45", "inbound_nodes": [[["hg0_rf2_connect_conv_conv_1x1_x3", 0, 0, {}]]]}, {"class_name": "BatchNormalization", "config": {"name": "batch_normalization_48", "trainable": true, "dtype": "float32", "axis": [3], "momentum": 0.99, "epsilon": 0.001, "center": true, "scale": true, "beta_initializer": {"class_name": "Zeros", "config": {}}, "gamma_initializer": {"class_name": "Ones", "config": {}}, "moving_mean_initializer": {"class_name": "Zeros", "config": {}}, "moving_variance_initializer": {"class_name": "Ones", "config": {}}, "beta_regularizer": null, "gamma_regularizer": null, "beta_constraint": null, "gamma_constraint": null}, "name": "batch_normalization_48", "inbound_nodes": [[["hg0_rf1_connect_conv_1x1_x3", 0, 0, {}]]]}, {"class_name": "Add", "config": {"name": "hg0_rf2_connect_conv_residual", "trainable": true, "dtype": "float32"}, "name": "hg0_rf2_connect_conv_residual", "inbound_nodes": [[["add_2", 0, 0, {}], ["batch_normalization_45", 0, 0, {}]]]}, {"class_name": "Add", "config": {"name": "hg0_rf1_connect_residual", "trainable": true, "dtype": "float32"}, "name": "hg0_rf1_connect_residual", "inbound_nodes": [[["hg0_l1_residual", 0, 0, {}], ["batch_normalization_48", 0, 0, {}]]]}, {"class_name": "UpSampling2D", "config": {"name": "up_sampling2d_2", "trainable": true, "dtype": "float32", "size": [2, 2], "data_format": "channels_last", "interpolation": "nearest"}, "name": "up_sampling2d_2", "inbound_nodes": [[["hg0_rf2_connect_conv_residual", 0, 0, {}]]]}, {"class_name": "Add", "config": {"name": "add_3", "trainable": true, "dtype": "float32"}, "name": "add_3", "inbound_nodes": [[["hg0_rf1_connect_residual", 0, 0, {}], ["up_sampling2d_2", 0, 0, {}]]]}, {"class_name": "SeparableConv2D", "config": {"name": "hg0_rf1_connect_conv_conv_1x1_x1", "trainable": true, "dtype": "float32", "filters": 64, "kernel_size": [1, 1], "strides": [1, 1], "padding": "same", "data_format": "channels_last", "dilation_rate": [1, 1], "groups": 1, "activation": "relu", "use_bias": true, "kernel_initializer": {"class_name": "GlorotUniform", "config": {"seed": null}}, "bias_initializer": {"class_name": "Zeros", "config": {}}, "kernel_regularizer": null, "bias_regularizer": null, "activity_regularizer": null, "kernel_constraint": null, "bias_constraint": null, "depth_multiplier": 1, "depthwise_initializer": {"class_name": "GlorotUniform", "config": {"seed": null}}, "pointwise_initializer": {"class_name": "GlorotUniform", "config": {"seed": null}}, "depthwise_regularizer": null, "pointwise_regularizer": null, "depthwise_constraint": null, "pointwise_constraint": null}, "name": "hg0_rf1_connect_conv_conv_1x1_x1", "inbound_nodes": [[["add_3", 0, 0, {}]]]}, {"class_name": "BatchNormalization", "config": {"name": "batch_normalization_49", "trainable": true, "dtype": "float32", "axis": [3], "momentum": 0.99, "epsilon": 0.001, "center": true, "scale": true, "beta_initializer": {"class_name": "Zeros", "config": {}}, "gamma_initializer": {"class_name": "Ones", "config": {}}, "moving_mean_initializer": {"class_name": "Zeros", "config": {}}, "moving_variance_initializer": {"class_name": "Ones", "config": {}}, "beta_regularizer": null, "gamma_regularizer": null, "beta_constraint": null, "gamma_constraint": null}, "name": "batch_normalization_49", "inbound_nodes": [[["hg0_rf1_connect_conv_conv_1x1_x1", 0, 0, {}]]]}, {"class_name": "SeparableConv2D", "config": {"name": "hg0_rf1_connect_conv_conv_3x3_x2", "trainable": true, "dtype": "float32", "filters": 64, "kernel_size": [3, 3], "strides": [1, 1], "padding": "same", "data_format": "channels_last", "dilation_rate": [1, 1], "groups": 1, "activation": "relu", "use_bias": true, "kernel_initializer": {"class_name": "GlorotUniform", "config": {"seed": null}}, "bias_initializer": {"class_name": "Zeros", "config": {}}, "kernel_regularizer": null, "bias_regularizer": null, "activity_regularizer": null, "kernel_constraint": null, "bias_constraint": null, "depth_multiplier": 1, "depthwise_initializer": {"class_name": "GlorotUniform", "config": {"seed": null}}, "pointwise_initializer": {"class_name": "GlorotUniform", "config": {"seed": null}}, "depthwise_regularizer": null, "pointwise_regularizer": null, "depthwise_constraint": null, "pointwise_constraint": null}, "name": "hg0_rf1_connect_conv_conv_3x3_x2", "inbound_nodes": [[["batch_normalization_49", 0, 0, {}]]]}, {"class_name": "BatchNormalization", "config": {"name": "batch_normalization_50", "trainable": true, "dtype": "float32", "axis": [3], "momentum": 0.99, "epsilon": 0.001, "center": true, "scale": true, "beta_initializer": {"class_name": "Zeros", "config": {}}, "gamma_initializer": {"class_name": "Ones", "config": {}}, "moving_mean_initializer": {"class_name": "Zeros", "config": {}}, "moving_variance_initializer": {"class_name": "Ones", "config": {}}, "beta_regularizer": null, "gamma_regularizer": null, "beta_constraint": null, "gamma_constraint": null}, "name": "batch_normalization_50", "inbound_nodes": [[["hg0_rf1_connect_conv_conv_3x3_x2", 0, 0, {}]]]}, {"class_name": "SeparableConv2D", "config": {"name": "hg0_rf1_connect_conv_conv_1x1_x3", "trainable": true, "dtype": "float32", "filters": 128, "kernel_size": [1, 1], "strides": [1, 1], "padding": "same", "data_format": "channels_last", "dilation_rate": [1, 1], "groups": 1, "activation": "relu", "use_bias": true, "kernel_initializer": {"class_name": "GlorotUniform", "config": {"seed": null}}, "bias_initializer": {"class_name": "Zeros", "config": {}}, "kernel_regularizer": null, "bias_regularizer": null, "activity_regularizer": null, "kernel_constraint": null, "bias_constraint": null, "depth_multiplier": 1, "depthwise_initializer": {"class_name": "GlorotUniform", "config": {"seed": null}}, "pointwise_initializer": {"class_name": "GlorotUniform", "config": {"seed": null}}, "depthwise_regularizer": null, "pointwise_regularizer": null, "depthwise_constraint": null, "pointwise_constraint": null}, "name": "hg0_rf1_connect_conv_conv_1x1_x3", "inbound_nodes": [[["batch_normalization_50", 0, 0, {}]]]}, {"class_name": "BatchNormalization", "config": {"name": "batch_normalization_51", "trainable": true, "dtype": "float32", "axis": [3], "momentum": 0.99, "epsilon": 0.001, "center": true, "scale": true, "beta_initializer": {"class_name": "Zeros", "config": {}}, "gamma_initializer": {"class_name": "Ones", "config": {}}, "moving_mean_initializer": {"class_name": "Zeros", "config": {}}, "moving_variance_initializer": {"class_name": "Ones", "config": {}}, "beta_regularizer": null, "gamma_regularizer": null, "beta_constraint": null, "gamma_constraint": null}, "name": "batch_normalization_51", "inbound_nodes": [[["hg0_rf1_connect_conv_conv_1x1_x3", 0, 0, {}]]]}, {"class_name": "Add", "config": {"name": "hg0_rf1_connect_conv_residual", "trainable": true, "dtype": "float32"}, "name": "hg0_rf1_connect_conv_residual", "inbound_nodes": [[["add_3", 0, 0, {}], ["batch_normalization_51", 0, 0, {}]]]}, {"class_name": "Conv2D", "config": {"name": "0_conv_1x1_x1", "trainable": true, "dtype": "float32", "filters": 128, "kernel_size": [1, 1], "strides": [1, 1], "padding": "same", "data_format": "channels_last", "dilation_rate": [1, 1], "groups": 1, "activation": "relu", "use_bias": true, "kernel_initializer": {"class_name": "GlorotUniform", "config": {"seed": null}}, "bias_initializer": {"class_name": "Zeros", "config": {}}, "kernel_regularizer": null, "bias_regularizer": null, "activity_regularizer": null, "kernel_constraint": null, "bias_constraint": null}, "name": "0_conv_1x1_x1", "inbound_nodes": [[["hg0_rf1_connect_conv_residual", 0, 0, {}]]]}, {"class_name": "BatchNormalization", "config": {"name": "batch_normalization_52", "trainable": true, "dtype": "float32", "axis": [3], "momentum": 0.99, "epsilon": 0.001, "center": true, "scale": true, "beta_initializer": {"class_name": "Zeros", "config": {}}, "gamma_initializer": {"class_name": "Ones", "config": {}}, "moving_mean_initializer": {"class_name": "Zeros", "config": {}}, "moving_variance_initializer": {"class_name": "Ones", "config": {}}, "beta_regularizer": null, "gamma_regularizer": null, "beta_constraint": null, "gamma_constraint": null}, "name": "batch_normalization_52", "inbound_nodes": [[["0_conv_1x1_x1", 0, 0, {}]]]}, {"class_name": "Conv2D", "config": {"name": "0_conv_1x1_parts", "trainable": true, "dtype": "float32", "filters": 16, "kernel_size": [1, 1], "strides": [1, 1], "padding": "same", "data_format": "channels_last", "dilation_rate": [1, 1], "groups": 1, "activation": "linear", "use_bias": true, "kernel_initializer": {"class_name": "GlorotUniform", "config": {"seed": null}}, "bias_initializer": {"class_name": "Zeros", "config": {}}, "kernel_regularizer": null, "bias_regularizer": null, "activity_regularizer": null, "kernel_constraint": null, "bias_constraint": null}, "name": "0_conv_1x1_parts", "inbound_nodes": [[["batch_normalization_52", 0, 0, {}]]]}, {"class_name": "Conv2D", "config": {"name": "0_conv_1x1_x2", "trainable": true, "dtype": "float32", "filters": 128, "kernel_size": [1, 1], "strides": [1, 1], "padding": "same", "data_format": "channels_last", "dilation_rate": [1, 1], "groups": 1, "activation": "linear", "use_bias": true, "kernel_initializer": {"class_name": "GlorotUniform", "config": {"seed": null}}, "bias_initializer": {"class_name": "Zeros", "config": {}}, "kernel_regularizer": null, "bias_regularizer": null, "activity_regularizer": null, "kernel_constraint": null, "bias_constraint": null}, "name": "0_conv_1x1_x2", "inbound_nodes": [[["batch_normalization_52", 0, 0, {}]]]}, {"class_name": "Conv2D", "config": {"name": "0_conv_1x1_x3", "trainable": true, "dtype": "float32", "filters": 128, "kernel_size": [1, 1], "strides": [1, 1], "padding": "same", "data_format": "channels_last", "dilation_rate": [1, 1], "groups": 1, "activation": "linear", "use_bias": true, "kernel_initializer": {"class_name": "GlorotUniform", "config": {"seed": null}}, "bias_initializer": {"class_name": "Zeros", "config": {}}, "kernel_regularizer": null, "bias_regularizer": null, "activity_regularizer": null, "kernel_constraint": null, "bias_constraint": null}, "name": "0_conv_1x1_x3", "inbound_nodes": [[["0_conv_1x1_parts", 0, 0, {}]]]}, {"class_name": "Add", "config": {"name": "add_4", "trainable": true, "dtype": "float32"}, "name": "add_4", "inbound_nodes": [[["0_conv_1x1_x2", 0, 0, {}], ["0_conv_1x1_x3", 0, 0, {}], ["front_residual_x3_residual", 0, 0, {}]]]}, {"class_name": "SeparableConv2D", "config": {"name": "hg1_l1_conv_1x1_x1", "trainable": true, "dtype": "float32", "filters": 64, "kernel_size": [1, 1], "strides": [1, 1], "padding": "same", "data_format": "channels_last", "dilation_rate": [1, 1], "groups": 1, "activation": "relu", "use_bias": true, "kernel_initializer": {"class_name": "GlorotUniform", "config": {"seed": null}}, "bias_initializer": {"class_name": "Zeros", "config": {}}, "kernel_regularizer": null, "bias_regularizer": null, "activity_regularizer": null, "kernel_constraint": null, "bias_constraint": null, "depth_multiplier": 1, "depthwise_initializer": {"class_name": "GlorotUniform", "config": {"seed": null}}, "pointwise_initializer": {"class_name": "GlorotUniform", "config": {"seed": null}}, "depthwise_regularizer": null, "pointwise_regularizer": null, "depthwise_constraint": null, "pointwise_constraint": null}, "name": "hg1_l1_conv_1x1_x1", "inbound_nodes": [[["add_4", 0, 0, {}]]]}, {"class_name": "BatchNormalization", "config": {"name": "batch_normalization_53", "trainable": true, "dtype": "float32", "axis": [3], "momentum": 0.99, "epsilon": 0.001, "center": true, "scale": true, "beta_initializer": {"class_name": "Zeros", "config": {}}, "gamma_initializer": {"class_name": "Ones", "config": {}}, "moving_mean_initializer": {"class_name": "Zeros", "config": {}}, "moving_variance_initializer": {"class_name": "Ones", "config": {}}, "beta_regularizer": null, "gamma_regularizer": null, "beta_constraint": null, "gamma_constraint": null}, "name": "batch_normalization_53", "inbound_nodes": [[["hg1_l1_conv_1x1_x1", 0, 0, {}]]]}, {"class_name": "SeparableConv2D", "config": {"name": "hg1_l1_conv_3x3_x2", "trainable": true, "dtype": "float32", "filters": 64, "kernel_size": [3, 3], "strides": [1, 1], "padding": "same", "data_format": "channels_last", "dilation_rate": [1, 1], "groups": 1, "activation": "relu", "use_bias": true, "kernel_initializer": {"class_name": "GlorotUniform", "config": {"seed": null}}, "bias_initializer": {"class_name": "Zeros", "config": {}}, "kernel_regularizer": null, "bias_regularizer": null, "activity_regularizer": null, "kernel_constraint": null, "bias_constraint": null, "depth_multiplier": 1, "depthwise_initializer": {"class_name": "GlorotUniform", "config": {"seed": null}}, "pointwise_initializer": {"class_name": "GlorotUniform", "config": {"seed": null}}, "depthwise_regularizer": null, "pointwise_regularizer": null, "depthwise_constraint": null, "pointwise_constraint": null}, "name": "hg1_l1_conv_3x3_x2", "inbound_nodes": [[["batch_normalization_53", 0, 0, {}]]]}, {"class_name": "BatchNormalization", "config": {"name": "batch_normalization_54", "trainable": true, "dtype": "float32", "axis": [3], "momentum": 0.99, "epsilon": 0.001, "center": true, "scale": true, "beta_initializer": {"class_name": "Zeros", "config": {}}, "gamma_initializer": {"class_name": "Ones", "config": {}}, "moving_mean_initializer": {"class_name": "Zeros", "config": {}}, "moving_variance_initializer": {"class_name": "Ones", "config": {}}, "beta_regularizer": null, "gamma_regularizer": null, "beta_constraint": null, "gamma_constraint": null}, "name": "batch_normalization_54", "inbound_nodes": [[["hg1_l1_conv_3x3_x2", 0, 0, {}]]]}, {"class_name": "SeparableConv2D", "config": {"name": "hg1_l1_conv_1x1_x3", "trainable": true, "dtype": "float32", "filters": 128, "kernel_size": [1, 1], "strides": [1, 1], "padding": "same", "data_format": "channels_last", "dilation_rate": [1, 1], "groups": 1, "activation": "relu", "use_bias": true, "kernel_initializer": {"class_name": "GlorotUniform", "config": {"seed": null}}, "bias_initializer": {"class_name": "Zeros", "config": {}}, "kernel_regularizer": null, "bias_regularizer": null, "activity_regularizer": null, "kernel_constraint": null, "bias_constraint": null, "depth_multiplier": 1, "depthwise_initializer": {"class_name": "GlorotUniform", "config": {"seed": null}}, "pointwise_initializer": {"class_name": "GlorotUniform", "config": {"seed": null}}, "depthwise_regularizer": null, "pointwise_regularizer": null, "depthwise_constraint": null, "pointwise_constraint": null}, "name": "hg1_l1_conv_1x1_x3", "inbound_nodes": [[["batch_normalization_54", 0, 0, {}]]]}, {"class_name": "BatchNormalization", "config": {"name": "batch_normalization_55", "trainable": true, "dtype": "float32", "axis": [3], "momentum": 0.99, "epsilon": 0.001, "center": true, "scale": true, "beta_initializer": {"class_name": "Zeros", "config": {}}, "gamma_initializer": {"class_name": "Ones", "config": {}}, "moving_mean_initializer": {"class_name": "Zeros", "config": {}}, "moving_variance_initializer": {"class_name": "Ones", "config": {}}, "beta_regularizer": null, "gamma_regularizer": null, "beta_constraint": null, "gamma_constraint": null}, "name": "batch_normalization_55", "inbound_nodes": [[["hg1_l1_conv_1x1_x3", 0, 0, {}]]]}, {"class_name": "Add", "config": {"name": "hg1_l1_residual", "trainable": true, "dtype": "float32"}, "name": "hg1_l1_residual", "inbound_nodes": [[["add_4", 0, 0, {}], ["batch_normalization_55", 0, 0, {}]]]}, {"class_name": "MaxPooling2D", "config": {"name": "max_pooling2d_4", "trainable": true, "dtype": "float32", "pool_size": [2, 2], "padding": "valid", "strides": [2, 2], "data_format": "channels_last"}, "name": "max_pooling2d_4", "inbound_nodes": [[["hg1_l1_residual", 0, 0, {}]]]}, {"class_name": "SeparableConv2D", "config": {"name": "hg1_l2_conv_1x1_x1", "trainable": true, "dtype": "float32", "filters": 64, "kernel_size": [1, 1], "strides": [1, 1], "padding": "same", "data_format": "channels_last", "dilation_rate": [1, 1], "groups": 1, "activation": "relu", "use_bias": true, "kernel_initializer": {"class_name": "GlorotUniform", "config": {"seed": null}}, "bias_initializer": {"class_name": "Zeros", "config": {}}, "kernel_regularizer": null, "bias_regularizer": null, "activity_regularizer": null, "kernel_constraint": null, "bias_constraint": null, "depth_multiplier": 1, "depthwise_initializer": {"class_name": "GlorotUniform", "config": {"seed": null}}, "pointwise_initializer": {"class_name": "GlorotUniform", "config": {"seed": null}}, "depthwise_regularizer": null, "pointwise_regularizer": null, "depthwise_constraint": null, "pointwise_constraint": null}, "name": "hg1_l2_conv_1x1_x1", "inbound_nodes": [[["max_pooling2d_4", 0, 0, {}]]]}, {"class_name": "BatchNormalization", "config": {"name": "batch_normalization_56", "trainable": true, "dtype": "float32", "axis": [3], "momentum": 0.99, "epsilon": 0.001, "center": true, "scale": true, "beta_initializer": {"class_name": "Zeros", "config": {}}, "gamma_initializer": {"class_name": "Ones", "config": {}}, "moving_mean_initializer": {"class_name": "Zeros", "config": {}}, "moving_variance_initializer": {"class_name": "Ones", "config": {}}, "beta_regularizer": null, "gamma_regularizer": null, "beta_constraint": null, "gamma_constraint": null}, "name": "batch_normalization_56", "inbound_nodes": [[["hg1_l2_conv_1x1_x1", 0, 0, {}]]]}, {"class_name": "SeparableConv2D", "config": {"name": "hg1_l2_conv_3x3_x2", "trainable": true, "dtype": "float32", "filters": 64, "kernel_size": [3, 3], "strides": [1, 1], "padding": "same", "data_format": "channels_last", "dilation_rate": [1, 1], "groups": 1, "activation": "relu", "use_bias": true, "kernel_initializer": {"class_name": "GlorotUniform", "config": {"seed": null}}, "bias_initializer": {"class_name": "Zeros", "config": {}}, "kernel_regularizer": null, "bias_regularizer": null, "activity_regularizer": null, "kernel_constraint": null, "bias_constraint": null, "depth_multiplier": 1, "depthwise_initializer": {"class_name": "GlorotUniform", "config": {"seed": null}}, "pointwise_initializer": {"class_name": "GlorotUniform", "config": {"seed": null}}, "depthwise_regularizer": null, "pointwise_regularizer": null, "depthwise_constraint": null, "pointwise_constraint": null}, "name": "hg1_l2_conv_3x3_x2", "inbound_nodes": [[["batch_normalization_56", 0, 0, {}]]]}, {"class_name": "BatchNormalization", "config": {"name": "batch_normalization_57", "trainable": true, "dtype": "float32", "axis": [3], "momentum": 0.99, "epsilon": 0.001, "center": true, "scale": true, "beta_initializer": {"class_name": "Zeros", "config": {}}, "gamma_initializer": {"class_name": "Ones", "config": {}}, "moving_mean_initializer": {"class_name": "Zeros", "config": {}}, "moving_variance_initializer": {"class_name": "Ones", "config": {}}, "beta_regularizer": null, "gamma_regularizer": null, "beta_constraint": null, "gamma_constraint": null}, "name": "batch_normalization_57", "inbound_nodes": [[["hg1_l2_conv_3x3_x2", 0, 0, {}]]]}, {"class_name": "SeparableConv2D", "config": {"name": "hg1_l2_conv_1x1_x3", "trainable": true, "dtype": "float32", "filters": 128, "kernel_size": [1, 1], "strides": [1, 1], "padding": "same", "data_format": "channels_last", "dilation_rate": [1, 1], "groups": 1, "activation": "relu", "use_bias": true, "kernel_initializer": {"class_name": "GlorotUniform", "config": {"seed": null}}, "bias_initializer": {"class_name": "Zeros", "config": {}}, "kernel_regularizer": null, "bias_regularizer": null, "activity_regularizer": null, "kernel_constraint": null, "bias_constraint": null, "depth_multiplier": 1, "depthwise_initializer": {"class_name": "GlorotUniform", "config": {"seed": null}}, "pointwise_initializer": {"class_name": "GlorotUniform", "config": {"seed": null}}, "depthwise_regularizer": null, "pointwise_regularizer": null, "depthwise_constraint": null, "pointwise_constraint": null}, "name": "hg1_l2_conv_1x1_x3", "inbound_nodes": [[["batch_normalization_57", 0, 0, {}]]]}, {"class_name": "BatchNormalization", "config": {"name": "batch_normalization_58", "trainable": true, "dtype": "float32", "axis": [3], "momentum": 0.99, "epsilon": 0.001, "center": true, "scale": true, "beta_initializer": {"class_name": "Zeros", "config": {}}, "gamma_initializer": {"class_name": "Ones", "config": {}}, "moving_mean_initializer": {"class_name": "Zeros", "config": {}}, "moving_variance_initializer": {"class_name": "Ones", "config": {}}, "beta_regularizer": null, "gamma_regularizer": null, "beta_constraint": null, "gamma_constraint": null}, "name": "batch_normalization_58", "inbound_nodes": [[["hg1_l2_conv_1x1_x3", 0, 0, {}]]]}, {"class_name": "Add", "config": {"name": "hg1_l2_residual", "trainable": true, "dtype": "float32"}, "name": "hg1_l2_residual", "inbound_nodes": [[["max_pooling2d_4", 0, 0, {}], ["batch_normalization_58", 0, 0, {}]]]}, {"class_name": "MaxPooling2D", "config": {"name": "max_pooling2d_5", "trainable": true, "dtype": "float32", "pool_size": [2, 2], "padding": "valid", "strides": [2, 2], "data_format": "channels_last"}, "name": "max_pooling2d_5", "inbound_nodes": [[["hg1_l2_residual", 0, 0, {}]]]}, {"class_name": "SeparableConv2D", "config": {"name": "hg1_l4_conv_1x1_x1", "trainable": true, "dtype": "float32", "filters": 64, "kernel_size": [1, 1], "strides": [1, 1], "padding": "same", "data_format": "channels_last", "dilation_rate": [1, 1], "groups": 1, "activation": "relu", "use_bias": true, "kernel_initializer": {"class_name": "GlorotUniform", "config": {"seed": null}}, "bias_initializer": {"class_name": "Zeros", "config": {}}, "kernel_regularizer": null, "bias_regularizer": null, "activity_regularizer": null, "kernel_constraint": null, "bias_constraint": null, "depth_multiplier": 1, "depthwise_initializer": {"class_name": "GlorotUniform", "config": {"seed": null}}, "pointwise_initializer": {"class_name": "GlorotUniform", "config": {"seed": null}}, "depthwise_regularizer": null, "pointwise_regularizer": null, "depthwise_constraint": null, "pointwise_constraint": null}, "name": "hg1_l4_conv_1x1_x1", "inbound_nodes": [[["max_pooling2d_5", 0, 0, {}]]]}, {"class_name": "BatchNormalization", "config": {"name": "batch_normalization_59", "trainable": true, "dtype": "float32", "axis": [3], "momentum": 0.99, "epsilon": 0.001, "center": true, "scale": true, "beta_initializer": {"class_name": "Zeros", "config": {}}, "gamma_initializer": {"class_name": "Ones", "config": {}}, "moving_mean_initializer": {"class_name": "Zeros", "config": {}}, "moving_variance_initializer": {"class_name": "Ones", "config": {}}, "beta_regularizer": null, "gamma_regularizer": null, "beta_constraint": null, "gamma_constraint": null}, "name": "batch_normalization_59", "inbound_nodes": [[["hg1_l4_conv_1x1_x1", 0, 0, {}]]]}, {"class_name": "SeparableConv2D", "config": {"name": "hg1_l4_conv_3x3_x2", "trainable": true, "dtype": "float32", "filters": 64, "kernel_size": [3, 3], "strides": [1, 1], "padding": "same", "data_format": "channels_last", "dilation_rate": [1, 1], "groups": 1, "activation": "relu", "use_bias": true, "kernel_initializer": {"class_name": "GlorotUniform", "config": {"seed": null}}, "bias_initializer": {"class_name": "Zeros", "config": {}}, "kernel_regularizer": null, "bias_regularizer": null, "activity_regularizer": null, "kernel_constraint": null, "bias_constraint": null, "depth_multiplier": 1, "depthwise_initializer": {"class_name": "GlorotUniform", "config": {"seed": null}}, "pointwise_initializer": {"class_name": "GlorotUniform", "config": {"seed": null}}, "depthwise_regularizer": null, "pointwise_regularizer": null, "depthwise_constraint": null, "pointwise_constraint": null}, "name": "hg1_l4_conv_3x3_x2", "inbound_nodes": [[["batch_normalization_59", 0, 0, {}]]]}, {"class_name": "BatchNormalization", "config": {"name": "batch_normalization_60", "trainable": true, "dtype": "float32", "axis": [3], "momentum": 0.99, "epsilon": 0.001, "center": true, "scale": true, "beta_initializer": {"class_name": "Zeros", "config": {}}, "gamma_initializer": {"class_name": "Ones", "config": {}}, "moving_mean_initializer": {"class_name": "Zeros", "config": {}}, "moving_variance_initializer": {"class_name": "Ones", "config": {}}, "beta_regularizer": null, "gamma_regularizer": null, "beta_constraint": null, "gamma_constraint": null}, "name": "batch_normalization_60", "inbound_nodes": [[["hg1_l4_conv_3x3_x2", 0, 0, {}]]]}, {"class_name": "SeparableConv2D", "config": {"name": "hg1_l4_conv_1x1_x3", "trainable": true, "dtype": "float32", "filters": 128, "kernel_size": [1, 1], "strides": [1, 1], "padding": "same", "data_format": "channels_last", "dilation_rate": [1, 1], "groups": 1, "activation": "relu", "use_bias": true, "kernel_initializer": {"class_name": "GlorotUniform", "config": {"seed": null}}, "bias_initializer": {"class_name": "Zeros", "config": {}}, "kernel_regularizer": null, "bias_regularizer": null, "activity_regularizer": null, "kernel_constraint": null, "bias_constraint": null, "depth_multiplier": 1, "depthwise_initializer": {"class_name": "GlorotUniform", "config": {"seed": null}}, "pointwise_initializer": {"class_name": "GlorotUniform", "config": {"seed": null}}, "depthwise_regularizer": null, "pointwise_regularizer": null, "depthwise_constraint": null, "pointwise_constraint": null}, "name": "hg1_l4_conv_1x1_x3", "inbound_nodes": [[["batch_normalization_60", 0, 0, {}]]]}, {"class_name": "BatchNormalization", "config": {"name": "batch_normalization_61", "trainable": true, "dtype": "float32", "axis": [3], "momentum": 0.99, "epsilon": 0.001, "center": true, "scale": true, "beta_initializer": {"class_name": "Zeros", "config": {}}, "gamma_initializer": {"class_name": "Ones", "config": {}}, "moving_mean_initializer": {"class_name": "Zeros", "config": {}}, "moving_variance_initializer": {"class_name": "Ones", "config": {}}, "beta_regularizer": null, "gamma_regularizer": null, "beta_constraint": null, "gamma_constraint": null}, "name": "batch_normalization_61", "inbound_nodes": [[["hg1_l4_conv_1x1_x3", 0, 0, {}]]]}, {"class_name": "Add", "config": {"name": "hg1_l4_residual", "trainable": true, "dtype": "float32"}, "name": "hg1_l4_residual", "inbound_nodes": [[["max_pooling2d_5", 0, 0, {}], ["batch_normalization_61", 0, 0, {}]]]}, {"class_name": "MaxPooling2D", "config": {"name": "max_pooling2d_6", "trainable": true, "dtype": "float32", "pool_size": [2, 2], "padding": "valid", "strides": [2, 2], "data_format": "channels_last"}, "name": "max_pooling2d_6", "inbound_nodes": [[["hg1_l4_residual", 0, 0, {}]]]}, {"class_name": "SeparableConv2D", "config": {"name": "hg1_l8_conv_1x1_x1", "trainable": true, "dtype": "float32", "filters": 64, "kernel_size": [1, 1], "strides": [1, 1], "padding": "same", "data_format": "channels_last", "dilation_rate": [1, 1], "groups": 1, "activation": "relu", "use_bias": true, "kernel_initializer": {"class_name": "GlorotUniform", "config": {"seed": null}}, "bias_initializer": {"class_name": "Zeros", "config": {}}, "kernel_regularizer": null, "bias_regularizer": null, "activity_regularizer": null, "kernel_constraint": null, "bias_constraint": null, "depth_multiplier": 1, "depthwise_initializer": {"class_name": "GlorotUniform", "config": {"seed": null}}, "pointwise_initializer": {"class_name": "GlorotUniform", "config": {"seed": null}}, "depthwise_regularizer": null, "pointwise_regularizer": null, "depthwise_constraint": null, "pointwise_constraint": null}, "name": "hg1_l8_conv_1x1_x1", "inbound_nodes": [[["max_pooling2d_6", 0, 0, {}]]]}, {"class_name": "BatchNormalization", "config": {"name": "batch_normalization_62", "trainable": true, "dtype": "float32", "axis": [3], "momentum": 0.99, "epsilon": 0.001, "center": true, "scale": true, "beta_initializer": {"class_name": "Zeros", "config": {}}, "gamma_initializer": {"class_name": "Ones", "config": {}}, "moving_mean_initializer": {"class_name": "Zeros", "config": {}}, "moving_variance_initializer": {"class_name": "Ones", "config": {}}, "beta_regularizer": null, "gamma_regularizer": null, "beta_constraint": null, "gamma_constraint": null}, "name": "batch_normalization_62", "inbound_nodes": [[["hg1_l8_conv_1x1_x1", 0, 0, {}]]]}, {"class_name": "SeparableConv2D", "config": {"name": "hg1_l8_conv_3x3_x2", "trainable": true, "dtype": "float32", "filters": 64, "kernel_size": [3, 3], "strides": [1, 1], "padding": "same", "data_format": "channels_last", "dilation_rate": [1, 1], "groups": 1, "activation": "relu", "use_bias": true, "kernel_initializer": {"class_name": "GlorotUniform", "config": {"seed": null}}, "bias_initializer": {"class_name": "Zeros", "config": {}}, "kernel_regularizer": null, "bias_regularizer": null, "activity_regularizer": null, "kernel_constraint": null, "bias_constraint": null, "depth_multiplier": 1, "depthwise_initializer": {"class_name": "GlorotUniform", "config": {"seed": null}}, "pointwise_initializer": {"class_name": "GlorotUniform", "config": {"seed": null}}, "depthwise_regularizer": null, "pointwise_regularizer": null, "depthwise_constraint": null, "pointwise_constraint": null}, "name": "hg1_l8_conv_3x3_x2", "inbound_nodes": [[["batch_normalization_62", 0, 0, {}]]]}, {"class_name": "BatchNormalization", "config": {"name": "batch_normalization_63", "trainable": true, "dtype": "float32", "axis": [3], "momentum": 0.99, "epsilon": 0.001, "center": true, "scale": true, "beta_initializer": {"class_name": "Zeros", "config": {}}, "gamma_initializer": {"class_name": "Ones", "config": {}}, "moving_mean_initializer": {"class_name": "Zeros", "config": {}}, "moving_variance_initializer": {"class_name": "Ones", "config": {}}, "beta_regularizer": null, "gamma_regularizer": null, "beta_constraint": null, "gamma_constraint": null}, "name": "batch_normalization_63", "inbound_nodes": [[["hg1_l8_conv_3x3_x2", 0, 0, {}]]]}, {"class_name": "SeparableConv2D", "config": {"name": "hg1_l8_conv_1x1_x3", "trainable": true, "dtype": "float32", "filters": 128, "kernel_size": [1, 1], "strides": [1, 1], "padding": "same", "data_format": "channels_last", "dilation_rate": [1, 1], "groups": 1, "activation": "relu", "use_bias": true, "kernel_initializer": {"class_name": "GlorotUniform", "config": {"seed": null}}, "bias_initializer": {"class_name": "Zeros", "config": {}}, "kernel_regularizer": null, "bias_regularizer": null, "activity_regularizer": null, "kernel_constraint": null, "bias_constraint": null, "depth_multiplier": 1, "depthwise_initializer": {"class_name": "GlorotUniform", "config": {"seed": null}}, "pointwise_initializer": {"class_name": "GlorotUniform", "config": {"seed": null}}, "depthwise_regularizer": null, "pointwise_regularizer": null, "depthwise_constraint": null, "pointwise_constraint": null}, "name": "hg1_l8_conv_1x1_x3", "inbound_nodes": [[["batch_normalization_63", 0, 0, {}]]]}, {"class_name": "BatchNormalization", "config": {"name": "batch_normalization_64", "trainable": true, "dtype": "float32", "axis": [3], "momentum": 0.99, "epsilon": 0.001, "center": true, "scale": true, "beta_initializer": {"class_name": "Zeros", "config": {}}, "gamma_initializer": {"class_name": "Ones", "config": {}}, "moving_mean_initializer": {"class_name": "Zeros", "config": {}}, "moving_variance_initializer": {"class_name": "Ones", "config": {}}, "beta_regularizer": null, "gamma_regularizer": null, "beta_constraint": null, "gamma_constraint": null}, "name": "batch_normalization_64", "inbound_nodes": [[["hg1_l8_conv_1x1_x3", 0, 0, {}]]]}, {"class_name": "Add", "config": {"name": "hg1_l8_residual", "trainable": true, "dtype": "float32"}, "name": "hg1_l8_residual", "inbound_nodes": [[["max_pooling2d_6", 0, 0, {}], ["batch_normalization_64", 0, 0, {}]]]}, {"class_name": "SeparableConv2D", "config": {"name": "1_lf8_x1_conv_1x1_x1", "trainable": true, "dtype": "float32", "filters": 64, "kernel_size": [1, 1], "strides": [1, 1], "padding": "same", "data_format": "channels_last", "dilation_rate": [1, 1], "groups": 1, "activation": "relu", "use_bias": true, "kernel_initializer": {"class_name": "GlorotUniform", "config": {"seed": null}}, "bias_initializer": {"class_name": "Zeros", "config": {}}, "kernel_regularizer": null, "bias_regularizer": null, "activity_regularizer": null, "kernel_constraint": null, "bias_constraint": null, "depth_multiplier": 1, "depthwise_initializer": {"class_name": "GlorotUniform", "config": {"seed": null}}, "pointwise_initializer": {"class_name": "GlorotUniform", "config": {"seed": null}}, "depthwise_regularizer": null, "pointwise_regularizer": null, "depthwise_constraint": null, "pointwise_constraint": null}, "name": "1_lf8_x1_conv_1x1_x1", "inbound_nodes": [[["hg1_l8_residual", 0, 0, {}]]]}, {"class_name": "BatchNormalization", "config": {"name": "batch_normalization_68", "trainable": true, "dtype": "float32", "axis": [3], "momentum": 0.99, "epsilon": 0.001, "center": true, "scale": true, "beta_initializer": {"class_name": "Zeros", "config": {}}, "gamma_initializer": {"class_name": "Ones", "config": {}}, "moving_mean_initializer": {"class_name": "Zeros", "config": {}}, "moving_variance_initializer": {"class_name": "Ones", "config": {}}, "beta_regularizer": null, "gamma_regularizer": null, "beta_constraint": null, "gamma_constraint": null}, "name": "batch_normalization_68", "inbound_nodes": [[["1_lf8_x1_conv_1x1_x1", 0, 0, {}]]]}, {"class_name": "SeparableConv2D", "config": {"name": "1_lf8_x1_conv_3x3_x2", "trainable": true, "dtype": "float32", "filters": 64, "kernel_size": [3, 3], "strides": [1, 1], "padding": "same", "data_format": "channels_last", "dilation_rate": [1, 1], "groups": 1, "activation": "relu", "use_bias": true, "kernel_initializer": {"class_name": "GlorotUniform", "config": {"seed": null}}, "bias_initializer": {"class_name": "Zeros", "config": {}}, "kernel_regularizer": null, "bias_regularizer": null, "activity_regularizer": null, "kernel_constraint": null, "bias_constraint": null, "depth_multiplier": 1, "depthwise_initializer": {"class_name": "GlorotUniform", "config": {"seed": null}}, "pointwise_initializer": {"class_name": "GlorotUniform", "config": {"seed": null}}, "depthwise_regularizer": null, "pointwise_regularizer": null, "depthwise_constraint": null, "pointwise_constraint": null}, "name": "1_lf8_x1_conv_3x3_x2", "inbound_nodes": [[["batch_normalization_68", 0, 0, {}]]]}, {"class_name": "BatchNormalization", "config": {"name": "batch_normalization_69", "trainable": true, "dtype": "float32", "axis": [3], "momentum": 0.99, "epsilon": 0.001, "center": true, "scale": true, "beta_initializer": {"class_name": "Zeros", "config": {}}, "gamma_initializer": {"class_name": "Ones", "config": {}}, "moving_mean_initializer": {"class_name": "Zeros", "config": {}}, "moving_variance_initializer": {"class_name": "Ones", "config": {}}, "beta_regularizer": null, "gamma_regularizer": null, "beta_constraint": null, "gamma_constraint": null}, "name": "batch_normalization_69", "inbound_nodes": [[["1_lf8_x1_conv_3x3_x2", 0, 0, {}]]]}, {"class_name": "SeparableConv2D", "config": {"name": "1_lf8_x1_conv_1x1_x3", "trainable": true, "dtype": "float32", "filters": 128, "kernel_size": [1, 1], "strides": [1, 1], "padding": "same", "data_format": "channels_last", "dilation_rate": [1, 1], "groups": 1, "activation": "relu", "use_bias": true, "kernel_initializer": {"class_name": "GlorotUniform", "config": {"seed": null}}, "bias_initializer": {"class_name": "Zeros", "config": {}}, "kernel_regularizer": null, "bias_regularizer": null, "activity_regularizer": null, "kernel_constraint": null, "bias_constraint": null, "depth_multiplier": 1, "depthwise_initializer": {"class_name": "GlorotUniform", "config": {"seed": null}}, "pointwise_initializer": {"class_name": "GlorotUniform", "config": {"seed": null}}, "depthwise_regularizer": null, "pointwise_regularizer": null, "depthwise_constraint": null, "pointwise_constraint": null}, "name": "1_lf8_x1_conv_1x1_x3", "inbound_nodes": [[["batch_normalization_69", 0, 0, {}]]]}, {"class_name": "BatchNormalization", "config": {"name": "batch_normalization_70", "trainable": true, "dtype": "float32", "axis": [3], "momentum": 0.99, "epsilon": 0.001, "center": true, "scale": true, "beta_initializer": {"class_name": "Zeros", "config": {}}, "gamma_initializer": {"class_name": "Ones", "config": {}}, "moving_mean_initializer": {"class_name": "Zeros", "config": {}}, "moving_variance_initializer": {"class_name": "Ones", "config": {}}, "beta_regularizer": null, "gamma_regularizer": null, "beta_constraint": null, "gamma_constraint": null}, "name": "batch_normalization_70", "inbound_nodes": [[["1_lf8_x1_conv_1x1_x3", 0, 0, {}]]]}, {"class_name": "Add", "config": {"name": "1_lf8_x1_residual", "trainable": true, "dtype": "float32"}, "name": "1_lf8_x1_residual", "inbound_nodes": [[["hg1_l8_residual", 0, 0, {}], ["batch_normalization_70", 0, 0, {}]]]}, {"class_name": "SeparableConv2D", "config": {"name": "1_lf8_x2_conv_1x1_x1", "trainable": true, "dtype": "float32", "filters": 64, "kernel_size": [1, 1], "strides": [1, 1], "padding": "same", "data_format": "channels_last", "dilation_rate": [1, 1], "groups": 1, "activation": "relu", "use_bias": true, "kernel_initializer": {"class_name": "GlorotUniform", "config": {"seed": null}}, "bias_initializer": {"class_name": "Zeros", "config": {}}, "kernel_regularizer": null, "bias_regularizer": null, "activity_regularizer": null, "kernel_constraint": null, "bias_constraint": null, "depth_multiplier": 1, "depthwise_initializer": {"class_name": "GlorotUniform", "config": {"seed": null}}, "pointwise_initializer": {"class_name": "GlorotUniform", "config": {"seed": null}}, "depthwise_regularizer": null, "pointwise_regularizer": null, "depthwise_constraint": null, "pointwise_constraint": null}, "name": "1_lf8_x2_conv_1x1_x1", "inbound_nodes": [[["1_lf8_x1_residual", 0, 0, {}]]]}, {"class_name": "BatchNormalization", "config": {"name": "batch_normalization_71", "trainable": true, "dtype": "float32", "axis": [3], "momentum": 0.99, "epsilon": 0.001, "center": true, "scale": true, "beta_initializer": {"class_name": "Zeros", "config": {}}, "gamma_initializer": {"class_name": "Ones", "config": {}}, "moving_mean_initializer": {"class_name": "Zeros", "config": {}}, "moving_variance_initializer": {"class_name": "Ones", "config": {}}, "beta_regularizer": null, "gamma_regularizer": null, "beta_constraint": null, "gamma_constraint": null}, "name": "batch_normalization_71", "inbound_nodes": [[["1_lf8_x2_conv_1x1_x1", 0, 0, {}]]]}, {"class_name": "SeparableConv2D", "config": {"name": "1_lf8_x2_conv_3x3_x2", "trainable": true, "dtype": "float32", "filters": 64, "kernel_size": [3, 3], "strides": [1, 1], "padding": "same", "data_format": "channels_last", "dilation_rate": [1, 1], "groups": 1, "activation": "relu", "use_bias": true, "kernel_initializer": {"class_name": "GlorotUniform", "config": {"seed": null}}, "bias_initializer": {"class_name": "Zeros", "config": {}}, "kernel_regularizer": null, "bias_regularizer": null, "activity_regularizer": null, "kernel_constraint": null, "bias_constraint": null, "depth_multiplier": 1, "depthwise_initializer": {"class_name": "GlorotUniform", "config": {"seed": null}}, "pointwise_initializer": {"class_name": "GlorotUniform", "config": {"seed": null}}, "depthwise_regularizer": null, "pointwise_regularizer": null, "depthwise_constraint": null, "pointwise_constraint": null}, "name": "1_lf8_x2_conv_3x3_x2", "inbound_nodes": [[["batch_normalization_71", 0, 0, {}]]]}, {"class_name": "BatchNormalization", "config": {"name": "batch_normalization_72", "trainable": true, "dtype": "float32", "axis": [3], "momentum": 0.99, "epsilon": 0.001, "center": true, "scale": true, "beta_initializer": {"class_name": "Zeros", "config": {}}, "gamma_initializer": {"class_name": "Ones", "config": {}}, "moving_mean_initializer": {"class_name": "Zeros", "config": {}}, "moving_variance_initializer": {"class_name": "Ones", "config": {}}, "beta_regularizer": null, "gamma_regularizer": null, "beta_constraint": null, "gamma_constraint": null}, "name": "batch_normalization_72", "inbound_nodes": [[["1_lf8_x2_conv_3x3_x2", 0, 0, {}]]]}, {"class_name": "SeparableConv2D", "config": {"name": "1_lf8_x2_conv_1x1_x3", "trainable": true, "dtype": "float32", "filters": 128, "kernel_size": [1, 1], "strides": [1, 1], "padding": "same", "data_format": "channels_last", "dilation_rate": [1, 1], "groups": 1, "activation": "relu", "use_bias": true, "kernel_initializer": {"class_name": "GlorotUniform", "config": {"seed": null}}, "bias_initializer": {"class_name": "Zeros", "config": {}}, "kernel_regularizer": null, "bias_regularizer": null, "activity_regularizer": null, "kernel_constraint": null, "bias_constraint": null, "depth_multiplier": 1, "depthwise_initializer": {"class_name": "GlorotUniform", "config": {"seed": null}}, "pointwise_initializer": {"class_name": "GlorotUniform", "config": {"seed": null}}, "depthwise_regularizer": null, "pointwise_regularizer": null, "depthwise_constraint": null, "pointwise_constraint": null}, "name": "1_lf8_x2_conv_1x1_x3", "inbound_nodes": [[["batch_normalization_72", 0, 0, {}]]]}, {"class_name": "BatchNormalization", "config": {"name": "batch_normalization_73", "trainable": true, "dtype": "float32", "axis": [3], "momentum": 0.99, "epsilon": 0.001, "center": true, "scale": true, "beta_initializer": {"class_name": "Zeros", "config": {}}, "gamma_initializer": {"class_name": "Ones", "config": {}}, "moving_mean_initializer": {"class_name": "Zeros", "config": {}}, "moving_variance_initializer": {"class_name": "Ones", "config": {}}, "beta_regularizer": null, "gamma_regularizer": null, "beta_constraint": null, "gamma_constraint": null}, "name": "batch_normalization_73", "inbound_nodes": [[["1_lf8_x2_conv_1x1_x3", 0, 0, {}]]]}, {"class_name": "Add", "config": {"name": "1_lf8_x2_residual", "trainable": true, "dtype": "float32"}, "name": "1_lf8_x2_residual", "inbound_nodes": [[["1_lf8_x1_residual", 0, 0, {}], ["batch_normalization_73", 0, 0, {}]]]}, {"class_name": "SeparableConv2D", "config": {"name": "1_lf8_x3_conv_1x1_x1", "trainable": true, "dtype": "float32", "filters": 64, "kernel_size": [1, 1], "strides": [1, 1], "padding": "same", "data_format": "channels_last", "dilation_rate": [1, 1], "groups": 1, "activation": "relu", "use_bias": true, "kernel_initializer": {"class_name": "GlorotUniform", "config": {"seed": null}}, "bias_initializer": {"class_name": "Zeros", "config": {}}, "kernel_regularizer": null, "bias_regularizer": null, "activity_regularizer": null, "kernel_constraint": null, "bias_constraint": null, "depth_multiplier": 1, "depthwise_initializer": {"class_name": "GlorotUniform", "config": {"seed": null}}, "pointwise_initializer": {"class_name": "GlorotUniform", "config": {"seed": null}}, "depthwise_regularizer": null, "pointwise_regularizer": null, "depthwise_constraint": null, "pointwise_constraint": null}, "name": "1_lf8_x3_conv_1x1_x1", "inbound_nodes": [[["1_lf8_x2_residual", 0, 0, {}]]]}, {"class_name": "SeparableConv2D", "config": {"name": "1_lf8_conv_1x1_x1", "trainable": true, "dtype": "float32", "filters": 64, "kernel_size": [1, 1], "strides": [1, 1], "padding": "same", "data_format": "channels_last", "dilation_rate": [1, 1], "groups": 1, "activation": "relu", "use_bias": true, "kernel_initializer": {"class_name": "GlorotUniform", "config": {"seed": null}}, "bias_initializer": {"class_name": "Zeros", "config": {}}, "kernel_regularizer": null, "bias_regularizer": null, "activity_regularizer": null, "kernel_constraint": null, "bias_constraint": null, "depth_multiplier": 1, "depthwise_initializer": {"class_name": "GlorotUniform", "config": {"seed": null}}, "pointwise_initializer": {"class_name": "GlorotUniform", "config": {"seed": null}}, "depthwise_regularizer": null, "pointwise_regularizer": null, "depthwise_constraint": null, "pointwise_constraint": null}, "name": "1_lf8_conv_1x1_x1", "inbound_nodes": [[["hg1_l8_residual", 0, 0, {}]]]}, {"class_name": "BatchNormalization", "config": {"name": "batch_normalization_74", "trainable": true, "dtype": "float32", "axis": [3], "momentum": 0.99, "epsilon": 0.001, "center": true, "scale": true, "beta_initializer": {"class_name": "Zeros", "config": {}}, "gamma_initializer": {"class_name": "Ones", "config": {}}, "moving_mean_initializer": {"class_name": "Zeros", "config": {}}, "moving_variance_initializer": {"class_name": "Ones", "config": {}}, "beta_regularizer": null, "gamma_regularizer": null, "beta_constraint": null, "gamma_constraint": null}, "name": "batch_normalization_74", "inbound_nodes": [[["1_lf8_x3_conv_1x1_x1", 0, 0, {}]]]}, {"class_name": "BatchNormalization", "config": {"name": "batch_normalization_65", "trainable": true, "dtype": "float32", "axis": [3], "momentum": 0.99, "epsilon": 0.001, "center": true, "scale": true, "beta_initializer": {"class_name": "Zeros", "config": {}}, "gamma_initializer": {"class_name": "Ones", "config": {}}, "moving_mean_initializer": {"class_name": "Zeros", "config": {}}, "moving_variance_initializer": {"class_name": "Ones", "config": {}}, "beta_regularizer": null, "gamma_regularizer": null, "beta_constraint": null, "gamma_constraint": null}, "name": "batch_normalization_65", "inbound_nodes": [[["1_lf8_conv_1x1_x1", 0, 0, {}]]]}, {"class_name": "SeparableConv2D", "config": {"name": "hg1_rf4_connect_conv_1x1_x1", "trainable": true, "dtype": "float32", "filters": 64, "kernel_size": [1, 1], "strides": [1, 1], "padding": "same", "data_format": "channels_last", "dilation_rate": [1, 1], "groups": 1, "activation": "relu", "use_bias": true, "kernel_initializer": {"class_name": "GlorotUniform", "config": {"seed": null}}, "bias_initializer": {"class_name": "Zeros", "config": {}}, "kernel_regularizer": null, "bias_regularizer": null, "activity_regularizer": null, "kernel_constraint": null, "bias_constraint": null, "depth_multiplier": 1, "depthwise_initializer": {"class_name": "GlorotUniform", "config": {"seed": null}}, "pointwise_initializer": {"class_name": "GlorotUniform", "config": {"seed": null}}, "depthwise_regularizer": null, "pointwise_regularizer": null, "depthwise_constraint": null, "pointwise_constraint": null}, "name": "hg1_rf4_connect_conv_1x1_x1", "inbound_nodes": [[["hg1_l4_residual", 0, 0, {}]]]}, {"class_name": "SeparableConv2D", "config": {"name": "1_lf8_x3_conv_3x3_x2", "trainable": true, "dtype": "float32", "filters": 64, "kernel_size": [3, 3], "strides": [1, 1], "padding": "same", "data_format": "channels_last", "dilation_rate": [1, 1], "groups": 1, "activation": "relu", "use_bias": true, "kernel_initializer": {"class_name": "GlorotUniform", "config": {"seed": null}}, "bias_initializer": {"class_name": "Zeros", "config": {}}, "kernel_regularizer": null, "bias_regularizer": null, "activity_regularizer": null, "kernel_constraint": null, "bias_constraint": null, "depth_multiplier": 1, "depthwise_initializer": {"class_name": "GlorotUniform", "config": {"seed": null}}, "pointwise_initializer": {"class_name": "GlorotUniform", "config": {"seed": null}}, "depthwise_regularizer": null, "pointwise_regularizer": null, "depthwise_constraint": null, "pointwise_constraint": null}, "name": "1_lf8_x3_conv_3x3_x2", "inbound_nodes": [[["batch_normalization_74", 0, 0, {}]]]}, {"class_name": "SeparableConv2D", "config": {"name": "1_lf8_conv_3x3_x2", "trainable": true, "dtype": "float32", "filters": 64, "kernel_size": [3, 3], "strides": [1, 1], "padding": "same", "data_format": "channels_last", "dilation_rate": [1, 1], "groups": 1, "activation": "relu", "use_bias": true, "kernel_initializer": {"class_name": "GlorotUniform", "config": {"seed": null}}, "bias_initializer": {"class_name": "Zeros", "config": {}}, "kernel_regularizer": null, "bias_regularizer": null, "activity_regularizer": null, "kernel_constraint": null, "bias_constraint": null, "depth_multiplier": 1, "depthwise_initializer": {"class_name": "GlorotUniform", "config": {"seed": null}}, "pointwise_initializer": {"class_name": "GlorotUniform", "config": {"seed": null}}, "depthwise_regularizer": null, "pointwise_regularizer": null, "depthwise_constraint": null, "pointwise_constraint": null}, "name": "1_lf8_conv_3x3_x2", "inbound_nodes": [[["batch_normalization_65", 0, 0, {}]]]}, {"class_name": "BatchNormalization", "config": {"name": "batch_normalization_77", "trainable": true, "dtype": "float32", "axis": [3], "momentum": 0.99, "epsilon": 0.001, "center": true, "scale": true, "beta_initializer": {"class_name": "Zeros", "config": {}}, "gamma_initializer": {"class_name": "Ones", "config": {}}, "moving_mean_initializer": {"class_name": "Zeros", "config": {}}, "moving_variance_initializer": {"class_name": "Ones", "config": {}}, "beta_regularizer": null, "gamma_regularizer": null, "beta_constraint": null, "gamma_constraint": null}, "name": "batch_normalization_77", "inbound_nodes": [[["hg1_rf4_connect_conv_1x1_x1", 0, 0, {}]]]}, {"class_name": "BatchNormalization", "config": {"name": "batch_normalization_75", "trainable": true, "dtype": "float32", "axis": [3], "momentum": 0.99, "epsilon": 0.001, "center": true, "scale": true, "beta_initializer": {"class_name": "Zeros", "config": {}}, "gamma_initializer": {"class_name": "Ones", "config": {}}, "moving_mean_initializer": {"class_name": "Zeros", "config": {}}, "moving_variance_initializer": {"class_name": "Ones", "config": {}}, "beta_regularizer": null, "gamma_regularizer": null, "beta_constraint": null, "gamma_constraint": null}, "name": "batch_normalization_75", "inbound_nodes": [[["1_lf8_x3_conv_3x3_x2", 0, 0, {}]]]}, {"class_name": "BatchNormalization", "config": {"name": "batch_normalization_66", "trainable": true, "dtype": "float32", "axis": [3], "momentum": 0.99, "epsilon": 0.001, "center": true, "scale": true, "beta_initializer": {"class_name": "Zeros", "config": {}}, "gamma_initializer": {"class_name": "Ones", "config": {}}, "moving_mean_initializer": {"class_name": "Zeros", "config": {}}, "moving_variance_initializer": {"class_name": "Ones", "config": {}}, "beta_regularizer": null, "gamma_regularizer": null, "beta_constraint": null, "gamma_constraint": null}, "name": "batch_normalization_66", "inbound_nodes": [[["1_lf8_conv_3x3_x2", 0, 0, {}]]]}, {"class_name": "SeparableConv2D", "config": {"name": "hg1_rf4_connect_conv_3x3_x2", "trainable": true, "dtype": "float32", "filters": 64, "kernel_size": [3, 3], "strides": [1, 1], "padding": "same", "data_format": "channels_last", "dilation_rate": [1, 1], "groups": 1, "activation": "relu", "use_bias": true, "kernel_initializer": {"class_name": "GlorotUniform", "config": {"seed": null}}, "bias_initializer": {"class_name": "Zeros", "config": {}}, "kernel_regularizer": null, "bias_regularizer": null, "activity_regularizer": null, "kernel_constraint": null, "bias_constraint": null, "depth_multiplier": 1, "depthwise_initializer": {"class_name": "GlorotUniform", "config": {"seed": null}}, "pointwise_initializer": {"class_name": "GlorotUniform", "config": {"seed": null}}, "depthwise_regularizer": null, "pointwise_regularizer": null, "depthwise_constraint": null, "pointwise_constraint": null}, "name": "hg1_rf4_connect_conv_3x3_x2", "inbound_nodes": [[["batch_normalization_77", 0, 0, {}]]]}, {"class_name": "SeparableConv2D", "config": {"name": "1_lf8_x3_conv_1x1_x3", "trainable": true, "dtype": "float32", "filters": 128, "kernel_size": [1, 1], "strides": [1, 1], "padding": "same", "data_format": "channels_last", "dilation_rate": [1, 1], "groups": 1, "activation": "relu", "use_bias": true, "kernel_initializer": {"class_name": "GlorotUniform", "config": {"seed": null}}, "bias_initializer": {"class_name": "Zeros", "config": {}}, "kernel_regularizer": null, "bias_regularizer": null, "activity_regularizer": null, "kernel_constraint": null, "bias_constraint": null, "depth_multiplier": 1, "depthwise_initializer": {"class_name": "GlorotUniform", "config": {"seed": null}}, "pointwise_initializer": {"class_name": "GlorotUniform", "config": {"seed": null}}, "depthwise_regularizer": null, "pointwise_regularizer": null, "depthwise_constraint": null, "pointwise_constraint": null}, "name": "1_lf8_x3_conv_1x1_x3", "inbound_nodes": [[["batch_normalization_75", 0, 0, {}]]]}, {"class_name": "SeparableConv2D", "config": {"name": "1_lf8_conv_1x1_x3", "trainable": true, "dtype": "float32", "filters": 128, "kernel_size": [1, 1], "strides": [1, 1], "padding": "same", "data_format": "channels_last", "dilation_rate": [1, 1], "groups": 1, "activation": "relu", "use_bias": true, "kernel_initializer": {"class_name": "GlorotUniform", "config": {"seed": null}}, "bias_initializer": {"class_name": "Zeros", "config": {}}, "kernel_regularizer": null, "bias_regularizer": null, "activity_regularizer": null, "kernel_constraint": null, "bias_constraint": null, "depth_multiplier": 1, "depthwise_initializer": {"class_name": "GlorotUniform", "config": {"seed": null}}, "pointwise_initializer": {"class_name": "GlorotUniform", "config": {"seed": null}}, "depthwise_regularizer": null, "pointwise_regularizer": null, "depthwise_constraint": null, "pointwise_constraint": null}, "name": "1_lf8_conv_1x1_x3", "inbound_nodes": [[["batch_normalization_66", 0, 0, {}]]]}, {"class_name": "BatchNormalization", "config": {"name": "batch_normalization_78", "trainable": true, "dtype": "float32", "axis": [3], "momentum": 0.99, "epsilon": 0.001, "center": true, "scale": true, "beta_initializer": {"class_name": "Zeros", "config": {}}, "gamma_initializer": {"class_name": "Ones", "config": {}}, "moving_mean_initializer": {"class_name": "Zeros", "config": {}}, "moving_variance_initializer": {"class_name": "Ones", "config": {}}, "beta_regularizer": null, "gamma_regularizer": null, "beta_constraint": null, "gamma_constraint": null}, "name": "batch_normalization_78", "inbound_nodes": [[["hg1_rf4_connect_conv_3x3_x2", 0, 0, {}]]]}, {"class_name": "BatchNormalization", "config": {"name": "batch_normalization_76", "trainable": true, "dtype": "float32", "axis": [3], "momentum": 0.99, "epsilon": 0.001, "center": true, "scale": true, "beta_initializer": {"class_name": "Zeros", "config": {}}, "gamma_initializer": {"class_name": "Ones", "config": {}}, "moving_mean_initializer": {"class_name": "Zeros", "config": {}}, "moving_variance_initializer": {"class_name": "Ones", "config": {}}, "beta_regularizer": null, "gamma_regularizer": null, "beta_constraint": null, "gamma_constraint": null}, "name": "batch_normalization_76", "inbound_nodes": [[["1_lf8_x3_conv_1x1_x3", 0, 0, {}]]]}, {"class_name": "BatchNormalization", "config": {"name": "batch_normalization_67", "trainable": true, "dtype": "float32", "axis": [3], "momentum": 0.99, "epsilon": 0.001, "center": true, "scale": true, "beta_initializer": {"class_name": "Zeros", "config": {}}, "gamma_initializer": {"class_name": "Ones", "config": {}}, "moving_mean_initializer": {"class_name": "Zeros", "config": {}}, "moving_variance_initializer": {"class_name": "Ones", "config": {}}, "beta_regularizer": null, "gamma_regularizer": null, "beta_constraint": null, "gamma_constraint": null}, "name": "batch_normalization_67", "inbound_nodes": [[["1_lf8_conv_1x1_x3", 0, 0, {}]]]}, {"class_name": "SeparableConv2D", "config": {"name": "hg1_rf4_connect_conv_1x1_x3", "trainable": true, "dtype": "float32", "filters": 128, "kernel_size": [1, 1], "strides": [1, 1], "padding": "same", "data_format": "channels_last", "dilation_rate": [1, 1], "groups": 1, "activation": "relu", "use_bias": true, "kernel_initializer": {"class_name": "GlorotUniform", "config": {"seed": null}}, "bias_initializer": {"class_name": "Zeros", "config": {}}, "kernel_regularizer": null, "bias_regularizer": null, "activity_regularizer": null, "kernel_constraint": null, "bias_constraint": null, "depth_multiplier": 1, "depthwise_initializer": {"class_name": "GlorotUniform", "config": {"seed": null}}, "pointwise_initializer": {"class_name": "GlorotUniform", "config": {"seed": null}}, "depthwise_regularizer": null, "pointwise_regularizer": null, "depthwise_constraint": null, "pointwise_constraint": null}, "name": "hg1_rf4_connect_conv_1x1_x3", "inbound_nodes": [[["batch_normalization_78", 0, 0, {}]]]}, {"class_name": "Add", "config": {"name": "1_lf8_x3_residual", "trainable": true, "dtype": "float32"}, "name": "1_lf8_x3_residual", "inbound_nodes": [[["1_lf8_x2_residual", 0, 0, {}], ["batch_normalization_76", 0, 0, {}]]]}, {"class_name": "Add", "config": {"name": "1_lf8_residual", "trainable": true, "dtype": "float32"}, "name": "1_lf8_residual", "inbound_nodes": [[["hg1_l8_residual", 0, 0, {}], ["batch_normalization_67", 0, 0, {}]]]}, {"class_name": "BatchNormalization", "config": {"name": "batch_normalization_79", "trainable": true, "dtype": "float32", "axis": [3], "momentum": 0.99, "epsilon": 0.001, "center": true, "scale": true, "beta_initializer": {"class_name": "Zeros", "config": {}}, "gamma_initializer": {"class_name": "Ones", "config": {}}, "moving_mean_initializer": {"class_name": "Zeros", "config": {}}, "moving_variance_initializer": {"class_name": "Ones", "config": {}}, "beta_regularizer": null, "gamma_regularizer": null, "beta_constraint": null, "gamma_constraint": null}, "name": "batch_normalization_79", "inbound_nodes": [[["hg1_rf4_connect_conv_1x1_x3", 0, 0, {}]]]}, {"class_name": "Add", "config": {"name": "add_5", "trainable": true, "dtype": "float32"}, "name": "add_5", "inbound_nodes": [[["1_lf8_x3_residual", 0, 0, {}], ["1_lf8_residual", 0, 0, {}]]]}, {"class_name": "Add", "config": {"name": "hg1_rf4_connect_residual", "trainable": true, "dtype": "float32"}, "name": "hg1_rf4_connect_residual", "inbound_nodes": [[["hg1_l4_residual", 0, 0, {}], ["batch_normalization_79", 0, 0, {}]]]}, {"class_name": "UpSampling2D", "config": {"name": "up_sampling2d_3", "trainable": true, "dtype": "float32", "size": [2, 2], "data_format": "channels_last", "interpolation": "nearest"}, "name": "up_sampling2d_3", "inbound_nodes": [[["add_5", 0, 0, {}]]]}, {"class_name": "Add", "config": {"name": "add_6", "trainable": true, "dtype": "float32"}, "name": "add_6", "inbound_nodes": [[["hg1_rf4_connect_residual", 0, 0, {}], ["up_sampling2d_3", 0, 0, {}]]]}, {"class_name": "SeparableConv2D", "config": {"name": "hg1_rf4_connect_conv_conv_1x1_x1", "trainable": true, "dtype": "float32", "filters": 64, "kernel_size": [1, 1], "strides": [1, 1], "padding": "same", "data_format": "channels_last", "dilation_rate": [1, 1], "groups": 1, "activation": "relu", "use_bias": true, "kernel_initializer": {"class_name": "GlorotUniform", "config": {"seed": null}}, "bias_initializer": {"class_name": "Zeros", "config": {}}, "kernel_regularizer": null, "bias_regularizer": null, "activity_regularizer": null, "kernel_constraint": null, "bias_constraint": null, "depth_multiplier": 1, "depthwise_initializer": {"class_name": "GlorotUniform", "config": {"seed": null}}, "pointwise_initializer": {"class_name": "GlorotUniform", "config": {"seed": null}}, "depthwise_regularizer": null, "pointwise_regularizer": null, "depthwise_constraint": null, "pointwise_constraint": null}, "name": "hg1_rf4_connect_conv_conv_1x1_x1", "inbound_nodes": [[["add_6", 0, 0, {}]]]}, {"class_name": "SeparableConv2D", "config": {"name": "hg1_rf2_connect_conv_1x1_x1", "trainable": true, "dtype": "float32", "filters": 64, "kernel_size": [1, 1], "strides": [1, 1], "padding": "same", "data_format": "channels_last", "dilation_rate": [1, 1], "groups": 1, "activation": "relu", "use_bias": true, "kernel_initializer": {"class_name": "GlorotUniform", "config": {"seed": null}}, "bias_initializer": {"class_name": "Zeros", "config": {}}, "kernel_regularizer": null, "bias_regularizer": null, "activity_regularizer": null, "kernel_constraint": null, "bias_constraint": null, "depth_multiplier": 1, "depthwise_initializer": {"class_name": "GlorotUniform", "config": {"seed": null}}, "pointwise_initializer": {"class_name": "GlorotUniform", "config": {"seed": null}}, "depthwise_regularizer": null, "pointwise_regularizer": null, "depthwise_constraint": null, "pointwise_constraint": null}, "name": "hg1_rf2_connect_conv_1x1_x1", "inbound_nodes": [[["hg1_l2_residual", 0, 0, {}]]]}, {"class_name": "BatchNormalization", "config": {"name": "batch_normalization_80", "trainable": true, "dtype": "float32", "axis": [3], "momentum": 0.99, "epsilon": 0.001, "center": true, "scale": true, "beta_initializer": {"class_name": "Zeros", "config": {}}, "gamma_initializer": {"class_name": "Ones", "config": {}}, "moving_mean_initializer": {"class_name": "Zeros", "config": {}}, "moving_variance_initializer": {"class_name": "Ones", "config": {}}, "beta_regularizer": null, "gamma_regularizer": null, "beta_constraint": null, "gamma_constraint": null}, "name": "batch_normalization_80", "inbound_nodes": [[["hg1_rf4_connect_conv_conv_1x1_x1", 0, 0, {}]]]}, {"class_name": "BatchNormalization", "config": {"name": "batch_normalization_83", "trainable": true, "dtype": "float32", "axis": [3], "momentum": 0.99, "epsilon": 0.001, "center": true, "scale": true, "beta_initializer": {"class_name": "Zeros", "config": {}}, "gamma_initializer": {"class_name": "Ones", "config": {}}, "moving_mean_initializer": {"class_name": "Zeros", "config": {}}, "moving_variance_initializer": {"class_name": "Ones", "config": {}}, "beta_regularizer": null, "gamma_regularizer": null, "beta_constraint": null, "gamma_constraint": null}, "name": "batch_normalization_83", "inbound_nodes": [[["hg1_rf2_connect_conv_1x1_x1", 0, 0, {}]]]}, {"class_name": "SeparableConv2D", "config": {"name": "hg1_rf4_connect_conv_conv_3x3_x2", "trainable": true, "dtype": "float32", "filters": 64, "kernel_size": [3, 3], "strides": [1, 1], "padding": "same", "data_format": "channels_last", "dilation_rate": [1, 1], "groups": 1, "activation": "relu", "use_bias": true, "kernel_initializer": {"class_name": "GlorotUniform", "config": {"seed": null}}, "bias_initializer": {"class_name": "Zeros", "config": {}}, "kernel_regularizer": null, "bias_regularizer": null, "activity_regularizer": null, "kernel_constraint": null, "bias_constraint": null, "depth_multiplier": 1, "depthwise_initializer": {"class_name": "GlorotUniform", "config": {"seed": null}}, "pointwise_initializer": {"class_name": "GlorotUniform", "config": {"seed": null}}, "depthwise_regularizer": null, "pointwise_regularizer": null, "depthwise_constraint": null, "pointwise_constraint": null}, "name": "hg1_rf4_connect_conv_conv_3x3_x2", "inbound_nodes": [[["batch_normalization_80", 0, 0, {}]]]}, {"class_name": "SeparableConv2D", "config": {"name": "hg1_rf2_connect_conv_3x3_x2", "trainable": true, "dtype": "float32", "filters": 64, "kernel_size": [3, 3], "strides": [1, 1], "padding": "same", "data_format": "channels_last", "dilation_rate": [1, 1], "groups": 1, "activation": "relu", "use_bias": true, "kernel_initializer": {"class_name": "GlorotUniform", "config": {"seed": null}}, "bias_initializer": {"class_name": "Zeros", "config": {}}, "kernel_regularizer": null, "bias_regularizer": null, "activity_regularizer": null, "kernel_constraint": null, "bias_constraint": null, "depth_multiplier": 1, "depthwise_initializer": {"class_name": "GlorotUniform", "config": {"seed": null}}, "pointwise_initializer": {"class_name": "GlorotUniform", "config": {"seed": null}}, "depthwise_regularizer": null, "pointwise_regularizer": null, "depthwise_constraint": null, "pointwise_constraint": null}, "name": "hg1_rf2_connect_conv_3x3_x2", "inbound_nodes": [[["batch_normalization_83", 0, 0, {}]]]}, {"class_name": "BatchNormalization", "config": {"name": "batch_normalization_81", "trainable": true, "dtype": "float32", "axis": [3], "momentum": 0.99, "epsilon": 0.001, "center": true, "scale": true, "beta_initializer": {"class_name": "Zeros", "config": {}}, "gamma_initializer": {"class_name": "Ones", "config": {}}, "moving_mean_initializer": {"class_name": "Zeros", "config": {}}, "moving_variance_initiali…
: [64], "dtype": "float32"}, {"name": "batch_normalization_11/beta", "shape": [64], "dtype": "float32"}, {"name": "batch_normalization_11/moving_mean", "shape": [64], "dtype": "float32"}, {"name": "batch_normalization_11/moving_variance", "shape": [64], "dtype": "float32"}, {"name": "batch_normalization_12/gamma", "shape": [128], "dtype": "float32"}, {"name": "batch_normalization_12/beta", "shape": [128], "dtype": "float32"}, {"name": "batch_normalization_12/moving_mean", "shape": [128], "dtype": "float32"}, {"name": "batch_normalization_12/moving_variance", "shape": [128], "dtype": "float32"}, {"name": "batch_normalization_13/gamma", "shape": [64], "dtype": "float32"}, {"name": "batch_normalization_13/beta", "shape": [64], "dtype": "float32"}, {"name": "batch_normalization_13/moving_mean", "shape": [64], "dtype": "float32"}, {"name": "batch_normalization_13/moving_variance", "shape": [64], "dtype": "float32"}, {"name": "batch_normalization_14/gamma", "shape": [64], "dtype": "float32"}, {"name": "batch_normalization_14/beta", "shape": [64], "dtype": "float32"}, {"name": "batch_normalization_14/moving_mean", "shape": [64], "dtype": "float32"}, {"name": "batch_normalization_14/moving_variance", "shape": [64], "dtype": "float32"}, {"name": "batch_normalization_15/gamma", "shape": [128], "dtype": "float32"}, {"name": "batch_normalization_15/beta", "shape": [128], "dtype": "float32"}, {"name": "batch_normalization_15/moving_mean", "shape": [128], "dtype": "float32"}, {"name": "batch_normalization_15/moving_variance", "shape": [128], "dtype": "float32"}, {"name": "batch_normalization_16/gamma", "shape": [64], "dtype": "float32"}, {"name": "batch_normalization_16/beta", "shape": [64], "dtype": "float32"}, {"name": "batch_normalization_16/moving_mean", "shape": [64], "dtype": "float32"}, {"name": "batch_normalization_16/moving_variance", "shape": [64], "dtype": "float32"}, {"name": "batch_normalization_17/gamma", "shape": [64], "dtype": "float32"}, {"name": "batch_normalization_17/beta", "shape": [64], "dtype": "float32"}, {"name": "batch_normalization_17/moving_mean", "shape": [64], "dtype": "float32"}, {"name": "batch_normalization_17/moving_variance", "shape": [64], "dtype": "float32"}, {"name": "batch_normalization_18/gamma", "shape": [128], "dtype": "float32"}, {"name": "batch_normalization_18/beta", "shape": [128], "dtype": "float32"}, {"name": "batch_normalization_18/moving_mean", "shape": [128], "dtype": "float32"}, {"name": "batch_normalization_18/moving_variance", "shape": [128], "dtype": "float32"}, {"name": "batch_normalization_19/gamma", "shape": [64], "dtype": "float32"}, {"name": "batch_normalization_19/beta", "shape": [64], "dtype": "float32"}, {"name": "batch_normalization_19/moving_mean", "shape": [64], "dtype": "float32"}, {"name": "batch_normalization_19/moving_variance", "shape": [64], "dtype": "float32"}, {"name": "batch_normalization_2/gamma", "shape": [32], "dtype": "float32"}, {"name": "batch_normalization_2/beta", "shape": [32], "dtype": "float32"}, {"name": "batch_normalization_2/moving_mean", "shape": [32], "dtype": "float32"}, {"name": "batch_normalization_2/moving_variance", "shape": [32], "dtype": "float32"}, {"name": "batch_normalization_20/gamma", "shape": [64], "dtype": "float32"}, {"name": "batch_normalization_20/beta", "shape": [64], "dtype": "float32"}, {"name": "batch_normalization_20/moving_mean", "shape": [64], "dtype": "float32"}, {"name": "batch_normalization_20/moving_variance", "shape": [64], "dtype": "float32"}, {"name": "batch_normalization_21/gamma", "shape": [128], "dtype": "float32"}, {"name": "batch_normalization_21/beta", "shape": [128], "dtype": "float32"}, {"name": "batch_normalization_21/moving_mean", "shape": [128], "dtype": "float32"}, {"name": "batch_normalization_21/moving_variance", "shape": [128], "dtype": "float32"}, {"name": "batch_normalization_22/gamma", "shape": [64], "dtype": "float32"}, {"name": "batch_normalization_22/beta", "shape": [64], "dtype": "float32"}, {"name": "batch_normalization_22/moving_mean", "shape": [64], "dtype": "float32"}, {"name": "batch_normalization_22/moving_variance", "shape": [64], "dtype": "float32"}, {"name": "batch_normalization_23/gamma", "shape": [64], "dtype": "float32"}, {"name": "batch_normalization_23/beta", "shape": [64], "dtype": "float32"}, {"name": "batch_normalization_23/moving_mean", "shape": [64], "dtype": "float32"}, {"name": "batch_normalization_23/moving_variance", "shape": [64], "dtype": "float32"}, {"name": "batch_normalization_24/gamma", "shape": [128], "dtype": "float32"}, {"name": "batch_normalization_24/beta", "shape": [128], "dtype": "float32"}, {"name": "batch_normalization_24/moving_mean", "shape": [128], "dtype": "float32"}, {"name": "batch_normalization_24/moving_variance", "shape": [128], "dtype": "float32"}, {"name": "batch_normalization_25/gamma", "shape": [64], "dtype": "float32"}, {"name": "batch_normalization_25/beta", "shape": [64], "dtype": "float32"}, {"name": "batch_normalization_25/moving_mean", "shape": [64], "dtype": "float32"}, {"name": "batch_normalization_25/moving_variance", "shape": [64], "dtype": "float32"}, {"name": "batch_normalization_26/gamma", "shape": [64], "dtype": "float32"}, {"name": "batch_normalization_26/beta", "shape": [64], "dtype": "float32"}, {"name": "batch_normalization_26/moving_mean", "shape": [64], "dtype": "float32"}, {"name": "batch_normalization_26/moving_variance", "shape": [64], "dtype": "float32"}, {"name": "batch_normalization_27/gamma", "shape": [128], "dtype": "float32"}, {"name": "batch_normalization_27/beta", "shape": [128], "dtype": "float32"}, {"name": "batch_normalization_27/moving_mean", "shape": [128], "dtype": "float32"}, {"name": "batch_normalization_27/moving_variance", "shape": [128], "dtype": "float32"}, {"name": "batch_normalization_28/gamma", "shape": [64], "dtype": "float32"}, {"name": "batch_normalization_28/beta", "shape": [64], "dtype": "float32"}, {"name": "batch_normalization_28/moving_mean", "shape": [64], "dtype": "float32"}, {"name": "batch_normalization_28/moving_variance", "shape": [64], "dtype": "float32"}, {"name": "batch_normalization_29/gamma", "shape": [64], "dtype": "float32"}, {"name": "batch_normalization_29/beta", "shape": [64], "dtype": "float32"}, {"name": "batch_normalization_29/moving_mean", "shape": [64], "dtype": "float32"}, {"name": "batch_normalization_29/moving_variance", "shape": [64], "dtype": "float32"}, {"name": "batch_normalization_3/gamma", "shape": [64], "dtype": "float32"}, {"name": "batch_normalization_3/beta", "shape": [64], "dtype": "float32"}, {"name": "batch_normalization_3/moving_mean", "shape": [64], "dtype": "float32"}, {"name": "batch_normalization_3/moving_variance", "shape": [64], "dtype": "float32"}, {"name": "batch_normalization_30/gamma", "shape": [128], "dtype": "float32"}, {"name": "batch_normalization_30/beta", "shape": [128], "dtype": "float32"}, {"name": "batch_normalization_30/moving_mean", "shape": [128], "dtype": "float32"}, {"name": "batch_normalization_30/moving_variance", "shape": [128], "dtype": "float32"}, {"name": "batch_normalization_31/gamma", "shape": [64], "dtype": "float32"}, {"name": "batch_normalization_31/beta", "shape": [64], "dtype": "float32"}, {"name": "batch_normalization_31/moving_mean", "shape": [64], "dtype": "float32"}, {"name": "batch_normalization_31/moving_variance", "shape": [64], "dtype": "float32"}, {"name": "batch_normalization_32/gamma", "shape": [64], "dtype": "float32"}, {"name": "batch_normalization_32/beta", "shape": [64], "dtype": "float32"}, {"name": "batch_normalization_32/moving_mean", "shape": [64], "dtype": "float32"}, {"name": "batch_normalization_32/moving_variance", "shape": [64], "dtype": "float32"}, {"name": "batch_normalization_33/gamma", "shape": [128], "dtype": "float32"}, {"name": "batch_normalization_33/beta", "shape": [128], "dtype": "float32"}, {"name": "batch_normalization_33/moving_mean", "shape": [128], "dtype": "float32"}, {"name": "batch_normalization_33/moving_variance", "shape": [128], "dtype": "float32"}, {"name": "batch_normalization_34/gamma", "shape": [64], "dtype": "float32"}, {"name": "batch_normalization_34/beta", "shape": [64], "dtype": "float32"}, {"name": "batch_normalization_34/moving_mean", "shape": [64], "dtype": "float32"}, {"name": "batch_normalization_34/moving_variance", "shape": [64], "dtype": "float32"}, {"name": "batch_normalization_35/gamma", "shape": [64], "dtype": "float32"}, {"name": "batch_normalization_35/beta", "shape": [64], "dtype": "float32"}, {"name": "batch_normalization_35/moving_mean", "shape": [64], "dtype": "float32"}, {"name": "batch_normalization_35/moving_variance", "shape": [64], "dtype": "float32"}, {"name": "batch_normalization_36/gamma", "shape": [128], "dtype": "float32"}, {"name": "batch_normalization_36/beta", "shape": [128], "dtype": "float32"}, {"name": "batch_normalization_36/moving_mean", "shape": [128], "dtype": "float32"}, {"name": "batch_normalization_36/moving_variance", "shape": [128], "dtype": "float32"}, {"name": "batch_normalization_37/gamma", "shape": [64], "dtype": "float32"}, {"name": "batch_normalization_37/beta", "shape": [64], "dtype": "float32"}, {"name": "batch_normalization_37/moving_mean", "shape": [64], "dtype": "float32"}, {"name": "batch_normalization_37/moving_variance", "shape": [64], "dtype": "float32"}, {"name": "batch_normalization_38/gamma", "shape": [64], "dtype": "float32"}, {"name": "batch_normalization_38/beta", "shape": [64], "dtype": "float32"}, {"name": "batch_normalization_38/moving_mean", "shape": [64], "dtype": "float32"}, {"name": "batch_normalization_38/moving_variance", "shape": [64], "dtype": "float32"}, {"name": "batch_normalization_39/gamma", "shape": [128], "dtype": "float32"}, {"name": "batch_normalization_39/beta", "shape": [128], "dtype": "float32"}, {"name": "batch_normalization_39/moving_mean", "shape": [128], "dtype": "float32"}, {"name": "batch_normalization_39/moving_variance", "shape": [128], "dtype": "float32"}, {"name": "batch_normalization_4/gamma", "shape": [32], "dtype": "float32"}, {"name": "batch_normalization_4/beta", "shape": [32], "dtype": "float32"}, {"name": "batch_normalization_4/moving_mean", "shape": [32], "dtype": "float32"}, {"name": "batch_normalization_4/moving_variance", "shape": [32], "dtype": "float32"}, {"name": "batch_normalization_40/gamma", "shape": [64], "dtype": "float32"}, {"name": "batch_normalization_40/beta", "shape": [64], "dtype": "float32"}, {"name": "batch_normalization_40/moving_mean", "shape": [64], "dtype": "float32"}, {"name": "batch_normalization_40/moving_variance", "shape": [64], "dtype": "float32"}, {"name": "batch_normalization_41/gamma", "shape": [64], "dtype": "float32"}, {"name": "batch_normalization_41/beta", "shape": [64], "dtype": "float32"}, {"name": "batch_normalization_41/moving_mean", "shape": [64], "dtype": "float32"}, {"name": "batch_normalization_41/moving_variance", "shape": [64], "dtype": "float32"}, {"name": "batch_normalization_42/gamma", "shape": [128], "dtype": "float32"}, {"name": "batch_normalization_42/beta", "shape": [128], "dtype": "float32"}, {"name": "batch_normalization_42/moving_mean", "shape": [128], "dtype": "float32"}, {"name": "batch_normalization_42/moving_variance", "shape": [128], "dtype": "float32"}, {"name": "batch_normalization_43/gamma", "shape": [64], "dtype": "float32"}, {"name": "batch_normalization_43/beta", "shape": [64], "dtype": "float32"}, {"name": "batch_normalization_43/moving_mean", "shape": [64], "dtype": "float32"}, {"name": "batch_normalization_43/moving_variance", "shape": [64], "dtype": "float32"}, {"name": "batch_normalization_44/gamma", "shape": [64], "dtype": "float32"}, {"name": "batch_normalization_44/beta", "shape": [64], "dtype": "float32"}, {"name": "batch_normalization_44/moving_mean", "shape": [64], "dtype": "float32"}, {"name": "batch_normalization_44/moving_variance", "shape": [64], "dtype": "float32"}, {"name": "batch_normalization_45/gamma", "shape": [128], "dtype": "float32"}, {"name": "batch_normalization_45/beta", "shape": [128], "dtype": "float32"}, {"name": "batch_normalization_45/moving_mean", "shape": [128], "dtype": "float32"}, {"name": "batch_normalization_45/moving_variance", "shape": [128], "dtype": "float32"}, {"name": "batch_normalization_46/gamma", "shape": [64], "dtype": "float32"}, {"name": "batch_normalization_46/beta", "shape": [64], "dtype": "float32"}, {"name": "batch_normalization_46/moving_mean", "shape": [64], "dtype": "float32"}, {"name": "batch_normalization_46/moving_variance", "shape": [64], "dtype": "float32"}, {"name": "batch_normalization_47/gamma", "shape": [64], "dtype": "float32"}, {"name": "batch_normalization_47/beta", "shape": [64], "dtype": "float32"}, {"name": "batch_normalization_47/moving_mean", "shape": [64], "dtype": "float32"}, {"name": "batch_normalization_47/moving_variance", "shape": [64], "dtype": "float32"}, {"name": "batch_normalization_48/gamma", "shape": [128], "dtype": "float32"}, {"name": "batch_normalization_48/beta", "shape": [128], "dtype": "float32"}, {"name": "batch_normalization_48/moving_mean", "shape": [128], "dtype": "float32"}, {"name": "batch_normalization_48/moving_variance", "shape": [128], "dtype": "float32"}, {"name": "batch_normalization_49/gamma", "shape": [64], "dtype": "float32"}, {"name": "batch_normalization_49/beta", "shape": [64], "dtype": "float32"}, {"name": "batch_normalization_49/moving_mean", "shape": [64], "dtype": "float32"}, {"name": "batch_normalization_49/moving_variance", "shape": [64], "dtype": "float32"}, {"name": "batch_normalization_5/gamma", "shape": [32], "dtype": "float32"}, {"name": "batch_normalization_5/beta", "shape": [32], "dtype": "float32"}, {"name": "batch_normalization_5/moving_mean", "shape": [32], "dtype": "float32"}, {"name": "batch_normalization_5/moving_variance", "shape": [32], "dtype": "float32"}, {"name": "batch_normalization_50/gamma", "shape": [64], "dtype": "float32"}, {"name": "batch_normalization_50/beta", "shape": [64], "dtype": "float32"}, {"name": "batch_normalization_50/moving_mean", "shape": [64], "dtype": "float32"}, {"name": "batch_normalization_50/moving_variance", "shape": [64], "dtype": "float32"}, {"name": "batch_normalization_51/gamma", "shape": [128], "dtype": "float32"}, {"name": "batch_normalization_51/beta", "shape": [128], "dtype": "float32"}, {"name": "batch_normalization_51/moving_mean", "shape": [128], "dtype": "float32"}, {"name": "batch_normalization_51/moving_variance", "shape": [128], "dtype": "float32"}, {"name": "batch_normalization_52/gamma", "shape": [128], "dtype": "float32"}, {"name": "batch_normalization_52/beta", "shape": [128], "dtype": "float32"}, {"name": "batch_normalization_52/moving_mean", "shape": [128], "dtype": "float32"}, {"name": "batch_normalization_52/moving_variance", "shape": [128], "dtype": "float32"}, {"name": "batch_normalization_53/gamma", "shape": [64], "dtype": "float32"}, {"name": "batch_normalization_53/beta", "shape": [64], "dtype": "float32"}, {"name": "batch_normalization_53/moving_mean", "shape": [64], "dtype": "float32"}, {"name": "batch_normalization_53/moving_variance", "shape": [64], "dtype": "float32"}, {"name": "batch_normalization_54/gamma", "shape": [64], "dtype": "float32"}, {"name": "batch_normalization_54/beta", "shape": [64], "dtype": "float32"}, {"name": "batch_normalization_54/moving_mean", "shape": [64], "dtype": "float32"}, {"name": "batch_normalization_54/moving_variance", "shape": [64], "dtype": "float32"}, {"name": "batch_normalization_55/gamma", "shape": [128], "dtype": "float32"}, {"name": "batch_normalization_55/beta", "shape": [128], "dtype": "float32"}, {"name": "batch_normalization_55/moving_mean", "shape": [128], "dtype": "float32"}, {"name": "batch_normalization_55/moving_variance", "shape": [128], "dtype": "float32"}, {"name": "batch_normalization_56/gamma", "shape": [64], "dtype": "float32"}, {"name": "batch_normalization_56/beta", "shape": [64], "dtype": "float32"}, {"name": "batch_normalization_56/moving_mean", "shape": [64], "dtype": "float32"}, {"name": "batch_normalization_56/moving_variance", "shape": [64], "dtype": "float32"}, {"name": "batch_normalization_57/gamma", "shape": [64], "dtype": "float32"}, {"name": "batch_normalization_57/beta", "shape": [64], "dtype": "float32"}, {"name": "batch_normalization_57/moving_mean", "shape": [64], "dtype": "float32"}, {"name": "batch_normalization_57/moving_variance", "shape": [64], "dtype": "float32"}, {"name": "batch_normalization_58/gamma", "shape": [128], "dtype": "float32"}, {"name": "batch_normalization_58/beta", "shape": [128], "dtype": "float32"}, {"name": "batch_normalization_58/moving_mean", "shape": [128], "dtype": "float32"}, {"name": "batch_normalization_58/moving_variance", "shape": [128], "dtype": "float32"}, {"name": "batch_normalization_59/gamma", "shape": [64], "dtype": "float32"}, {"name": "batch_normalization_59/beta", "shape": [64], "dtype": "float32"}, {"name": "batch_normalization_59/moving_mean", "shape": [64], "dtype": "float32"}, {"name": "batch_normalization_59/moving_variance", "shape": [64], "dtype": "float32"}, {"name": "batch_normalization_6/gamma", "shape": [64], "dtype": "float32"}, {"name": "batch_normalization_6/beta", "shape": [64], "dtype": "float32"}, {"name": "batch_normalization_6/moving_mean", "shape": [64], "dtype": "float32"}, {"name": "batch_normalization_6/moving_variance", "shape": [64], "dtype": "float32"}, {"name": "batch_normalization_60/gamma", "shape": [64], "dtype": "float32"}, {"name": "batch_normalization_60/beta", "shape": [64], "dtype": "float32"}, {"name": "batch_normalization_60/moving_mean", "shape": [64], "dtype": "float32"}, {"name": "batch_normalization_60/moving_variance", "shape": [64], "dtype": "float32"}, {"name": "batch_normalization_61/gamma", "shape": [128], "dtype": "float32"}, {"name": "batch_normalization_61/beta", "shape": [128], "dtype": "float32"}, {"name": "batch_normalization_61/moving_mean", "shape": [128], "dtype": "float32"}, {"name": "batch_normalization_61/moving_variance", "shape": [128], "dtype": "float32"}, {"name": "batch_normalization_62/gamma", "shape": [64], "dtype": "float32"}, {"name": "batch_normalization_62/beta", "shape": [64], "dtype": "float32"}, {"name": "batch_normalization_62/moving_mean", "shape": [64], "dtype": "float32"}, {"name": "batch_normalization_62/moving_variance", "shape": [64], "dtype": "float32"}, {"name": "batch_normalization_63/gamma", "shape": [64], "dtype": "float32"}, {"name": "batch_normalization_63/beta", "shape": [64], "dtype": "float32"}, {"name": "batch_normalization_63/moving_mean", "shape": [64], "dtype": "float32"}, {"name": "batch_normalization_63/moving_variance", "shape": [64], "dtype": "float32"}, {"name": "batch_normalization_64/gamma", "shape": [128], "dtype": "float32"}, {"name": "batch_normalization_64/beta", "shape": [128], "dtype": "float32"}, {"name": "batch_normalization_64/moving_mean", "shape": [128], "dtype": "float32"}, {"name": "batch_normalization_64/moving_variance", "shape": [128], "dtype": "float32"}, {"name": "batch_normalization_65/gamma", "shape": [64], "dtype": "float32"}, {"name": "batch_normalization_65/beta", "shape": [64], "dtype": "float32"}, {"name": "batch_normalization_65/moving_mean", "shape": [64], "dtype": "float32"}, {"name": "batch_normalization_65/moving_variance", "shape": [64], "dtype": "float32"}, {"name": "batch_normalization_66/gamma", "shape": [64], "dtype": "float32"}, {"name": "batch_normalization_66/beta", "shape": [64], "dtype": "float32"}, {"name": "batch_normalization_66/moving_mean", "shape": [64], "dtype": "float32"}, {"name": "batch_normalization_66/moving_variance", "shape": [64], "dtype": "float32"}, {"name": "batch_normalization_67/gamma", "shape": [128], "dtype": "float32"}, {"name": "batch_normalization_67/beta", "shape": [128], "dtype": "float32"}, {"name": "batch_normalization_67/moving_mean", "shape": [128], "dtype": "float32"}, {"name": "batch_normalization_67/moving_variance", "shape": [128], "dtype": "float32"}, {"name": "batch_normalization_68/gamma", "shape": [64], "dtype": "float32"}, {"name": "batch_normalization_68/beta", "shape": [64], "dtype": "float32"}, {"name": "batch_normalization_68/moving_mean", "shape": [64], "dtype": "float32"}, {"name": "batch_normalization_68/moving_variance", "shape": [64], "dtype": "float32"}, {"name": "batch_normalization_69/gamma", "shape": [64], "dtype": "float32"}, {"name": "batch_normalization_69/beta", "shape": [64], "dtype": "float32"}, {"name": "batch_normalization_69/moving_mean", "shape": [64], "dtype": "float32"}, {"name": "batch_normalization_69/moving_variance", "shape": [64], "dtype": "float32"}, {"name": "batch_normalization_7/gamma", "shape": [64], "dtype": "float32"}, {"name": "batch_normalization_7/beta", "shape": [64], "dtype": "float32"}, {"name": "batch_normalization_7/moving_mean", "shape": [64], "dtype": "float32"}, {"name": "batch_normalization_7/moving_variance", "shape": [64], "dtype": "float32"}, {"name": "batch_normalization_70/gamma", "shape": [128], "dtype": "float32"}, {"name": "batch_normalization_70/beta", "shape": [128], "dtype": "float32"}, {"name": "batch_normalization_70/moving_mean", "shape": [128], "dtype": "float32"}, {"name": "batch_normalization_70/moving_variance", "shape": [128], "dtype": "float32"}, {"name": "batch_normalization_71/gamma", "shape": [64], "dtype": "float32"}, {"name": "batch_normalization_71/beta", "shape": [64], "dtype": "float32"}, {"name": "batch_normalization_71/moving_mean", "shape": [64], "dtype": "float32"}, {"name": "batch_normalization_71/moving_variance", "shape": [64], "dtype": "float32"}, {"name": "batch_normalization_72/gamma", "shape": [64], "dtype": "float32"}, {"name": "batch_normalization_72/beta", "shape": [64], "dtype": "float32"}, {"name": "batch_normalization_72/moving_mean", "shape": [64], "dtype": "float32"}, {"name": "batch_normalization_72/moving_variance", "shape": [64], "dtype": "float32"}, {"name": "batch_normalization_73/gamma", "shape": [128], "dtype": "float32"}, {"name": "batch_normalization_73/beta", "shape": [128], "dtype": "float32"}, {"name": "batch_normalization_73/moving_mean", "shape": [128], "dtype": "float32"}, {"name": "batch_normalization_73/moving_variance", "shape": [128], "dtype": "float32"}, {"name": "batch_normalization_74/gamma", "shape": [64], "dtype": "float32"}, {"name": "batch_normalization_74/beta", "shape": [64], "dtype": "float32"}, {"name": "batch_normalization_74/moving_mean", "shape": [64], "dtype": "float32"}, {"name": "batch_normalization_74/moving_variance", "shape": [64], "dtype": "float32"}, {"name": "batch_normalization_75/gamma", "shape": [64], "dtype": "float32"}, {"name": "batch_normalization_75/beta", "shape": [64], "dtype": "float32"}, {"name": "batch_normalization_75/moving_mean", "shape": [64], "dtype": "float32"}, {"name": "batch_normalization_75/moving_variance", "shape": [64], "dtype": "float32"}, {"name": "batch_normalization_76/gamma", "shape": [128], "dtype": "float32"}, {"name": "batch_normalization_76/beta", "shape": [128], "dtype": "float32"}, {"name": "batch_normalization_76/moving_mean", "shape": [128], "dtype": "float32"}, {"name": "batch_normalization_76/moving_variance", "shape": [128], "dtype": "float32"}, {"name": "batch_normalization_77/gamma", "shape": [64], "dtype": "float32"}, {"name": "batch_normalization_77/beta", "shape": [64], "dtype": "float32"}, {"name": "batch_normalization_77/moving_mean", "shape": [64], "dtype": "float32"}, {"name": "batch_normalization_77/moving_variance", "shape": [64], "dtype": "float32"}, {"name": "batch_normalization_78/gamma", "shape": [64], "dtype": "float32"}, {"name": "batch_normalization_78/beta", "shape": [64], "dtype": "float32"}, {"name": "batch_normalization_78/moving_mean", "shape": [64], "dtype": "float32"}, {"name": "batch_normalization_78/moving_variance", "shape": [64], "dtype": "float32"}, {"name": "batch_normalization_79/gamma", "shape": [128], "dtype": "float32"}, {"name": "batch_normalization_79/beta", "shape": [128], "dtype": "float32"}, {"name": "batch_normalization_79/moving_mean", "shape": [128], "dtype": "float32"}, {"name": "batch_normalization_79/moving_variance", "shape": [128], "dtype": "float32"}, {"name": "batch_normalization_8/gamma", "shape": [64], "dtype": "float32"}, {"name": "batch_normalization_8/beta", "shape": [64], "dtype": "float32"}, {"name": "batch_normalization_8/moving_mean", "shape": [64], "dtype": "float32"}, {"name": "batch_normalization_8/moving_variance", "shape": [64], "dtype": "float32"}, {"name": "batch_normalization_80/gamma", "shape": [64], "dtype": "float32"}, {"name": "batch_normalization_80/beta", "shape": [64], "dtype": "float32"}, {"name": "batch_normalization_80/moving_mean", "shape": [64], "dtype": "float32"}, {"name": "batch_normalization_80/moving_variance", "shape": [64], "dtype": "float32"}, {"name": "batch_normalization_81/gamma", "shape": [64], "dtype": "float32"}, {"name": "batch_normalization_81/beta", "shape": [64], "dtype": "float32"}, {"name": "batch_normalization_81/moving_mean", "shape": [64], "dtype": "float32"}, {"name": "batch_normalization_81/moving_variance", "shape": [64], "dtype": "float32"}, {"name": "batch_normalization_82/gamma", "shape": [128], "dtype": "float32"}, {"name": "batch_normalization_82/beta", "shape": [128], "dtype": "float32"}, {"name": "batch_normalization_82/moving_mean", "shape": [128], "dtype": "float32"}, {"name": "batch_normalization_82/moving_variance", "shape": [128], "dtype": "float32"}, {"name": "batch_normalization_83/gamma", "shape": [64], "dtype": "float32"}, {"name": "batch_normalization_83/beta", "shape": [64], "dtype": "float32"}, {"name": "batch_normalization_83/moving_mean", "shape": [64], "dtype": "float32"}, {"name": "batch_normalization_83/moving_variance", "shape": [64], "dtype": "float32"}, {"name": "batch_normalization_84/gamma", "shape": [64], "dtype": "float32"}, {"name": "batch_normalization_84/beta", "shape": [64], "dtype": "float32"}, {"name": "batch_normalization_84/moving_mean", "shape": [64], "dtype": "float32"}, {"name": "batch_normalization_84/moving_variance", "shape": [64], "dtype": "float32"}, {"name": "batch_normalization_85/gamma", "shape": [128], "dtype": "float32"}, {"name": "batch_normalization_85/beta", "shape": [128], "dtype": "float32"}, {"name": "batch_normalization_85/moving_mean", "shape": [128], "dtype": "float32"}, {"name": "batch_normalization_85/moving_variance", "shape": [128], "dtype": "float32"}, {"name": "batch_normalization_86/gamma", "shape": [64], "dtype": "float32"}, {"name": "batch_normalization_86/beta", "shape": [64], "dtype": "float32"}, {"name": "batch_normalization_86/moving_mean", "shape": [64], "dtype": "float32"}, {"name": "batch_normalization_86/moving_variance", "shape": [64], "dtype": "float32"}, {"name": "batch_normalization_87/gamma", "shape": [64], "dtype": "float32"}, {"name": "batch_normalization_87/beta", "shape": [64], "dtype": "float32"}, {"name": "batch_normalization_87/moving_mean", "shape": [64], "dtype": "float32"}, {"name": "batch_normalization_87/moving_variance", "shape": [64], "dtype": "float32"}, {"name": "batch_normalization_88/gamma", "shape": [128], "dtype": "float32"}, {"name": "batch_normalization_88/beta", "shape": [128], "dtype": "float32"}, {"name": "batch_normalization_88/moving_mean", "shape": [128], "dtype": "float32"}, {"name": "batch_normalization_88/moving_variance", "shape": [128], "dtype": "float32"}, {"name": "batch_normalization_89/gamma", "shape": [64], "dtype": "float32"}, {"name": "batch_normalization_89/beta", "shape": [64], "dtype": "float32"}, {"name": "batch_normalization_89/moving_mean", "shape": [64], "dtype": "float32"}, {"name": "batch_normalization_89/moving_variance", "shape": [64], "dtype": "float32"}, {"name": "batch_normalization_9/gamma", "shape": [128], "dtype": "float32"}, {"name": "batch_normalization_9/beta", "shape": [128], "dtype": "float32"}, {"name": "batch_normalization_9/moving_mean", "shape": [128], "dtype": "float32"}, {"name": "batch_normalization_9/moving_variance", "shape": [128], "dtype": "float32"}, {"name": "batch_normalization_90/gamma", "shape": [64], "dtype": "float32"}, {"name": "batch_normalization_90/beta", "shape": [64], "dtype": "float32"}, {"name": "batch_normalization_90/moving_mean", "shape": [64], "dtype": "float32"}, {"name": "batch_normalization_90/moving_variance", "shape": [64], "dtype": "float32"}, {"name": "batch_normalization_91/gamma", "shape": [128], "dtype": "float32"}, {"name": "batch_normalization_91/beta", "shape": [128], "dtype": "float32"}, {"name": "batch_normalization_91/moving_mean", "shape": [128], "dtype": "float32"}, {"name": "batch_normalization_91/moving_variance", "shape": [128], "dtype": "float32"}, {"name": "batch_normalization_92/gamma", "shape": [64], "dtype": "float32"}, {"name": "batch_normalization_92/beta", "shape": [64], "dtype": "float32"}, {"name": "batch_normalization_92/moving_mean", "shape": [64], "dtype": "float32"}, {"name": "batch_normalization_92/moving_variance", "shape": [64], "dtype": "float32"}, {"name": "batch_normalization_93/gamma", "shape": [64], "dtype": "float32"}, {"name": "batch_normalization_93/beta", "shape": [64], "dtype": "float32"}, {"name": "batch_normalization_93/moving_mean", "shape": [64], "dtype": "float32"}, {"name": "batch_normalization_93/moving_variance", "shape": [64], "dtype": "float32"}, {"name": "batch_normalization_94/gamma", "shape": [128], "dtype": "float32"}, {"name": "batch_normalization_94/beta", "shape": [128], "dtype": "float32"}, {"name": "batch_normalization_94/moving_mean", "shape": [128], "dtype": "float32"}, {"name": "batch_normalization_94/moving_variance", "shape": [128], "dtype": "float32"}, {"name": "batch_normalization_95/gamma", "shape": [128], "dtype": "float32"}, {"name": "batch_normalization_95/beta", "shape": [128], "dtype": "float32"}, {"name": "batch_normalization_95/moving_mean", "shape": [128], "dtype": "float32"}, {"name": "batch_normalization_95/moving_variance", "shape": [128], "dtype": "float32"}, {"name": "front_conv_1x1_x1/kernel", "shape": [7, 7, 3, 64], "dtype": "float32"}, {"name": "front_conv_1x1_x1/bias", "shape": [64], "dtype": "float32"}, {"name": "front_residual_x1_conv_1x1_x1/depthwise_kernel", "shape": [1, 1, 64, 1], "dtype": "float32"}, {"name": "front_residual_x1_conv_1x1_x1/pointwise_kernel", "shape": [1, 1, 64, 32], "dtype": "float32"}, {"name": "front_residual_x1_conv_1x1_x1/bias", "shape": [32], "dtype": "float32"}, {"name": "front_residual_x1_conv_1x1_x3/depthwise_kernel", "shape": [1, 1, 32, 1], "dtype": "float32"}, {"name": "front_residual_x1_conv_1x1_x3/pointwise_kernel", "shape": [1, 1, 32, 64], "dtype": "float32"}, {"name": "front_residual_x1_conv_1x1_x3/bias", "shape": [64], "dtype": "float32"}, {"name": "front_residual_x1_conv_3x3_x2/depthwise_kernel", "shape": [3, 3, 32, 1], "dtype": "float32"}, {"name": "front_residual_x1_conv_3x3_x2/pointwise_kernel", "shape": [1, 1, 32, 32], "dtype": "float32"}, {"name": "front_residual_x1_conv_3x3_x2/bias", "shape": [32], "dtype": "float32"}, {"name": "front_residual_x2_conv_1x1_x1/depthwise_kernel", "shape": [1, 1, 64, 1], "dtype": "float32"}, {"name": "front_residual_x2_conv_1x1_x1/pointwise_kernel", "shape": [1, 1, 64, 32], "dtype": "float32"}, {"name": "front_residual_x2_conv_1x1_x1/bias", "shape": [32], "dtype": "float32"}, {"name": "front_residual_x2_conv_1x1_x3/depthwise_kernel", "shape": [1, 1, 32, 1], "dtype": "float32"}, {"name": "front_residual_x2_conv_1x1_x3/pointwise_kernel", "shape": [1, 1, 32, 64], "dtype": "float32"}, {"name": "front_residual_x2_conv_1x1_x3/bias", "shape": [64], "dtype": "float32"}, {"name": "front_residual_x2_conv_3x3_x2/depthwise_kernel", "shape": [3, 3, 32, 1], "dtype": "float32"}, {"name": "front_residual_x2_conv_3x3_x2/pointwise_kernel", "shape": [1, 1, 32, 32], "dtype": "float32"}, {"name": "front_residual_x2_conv_3x3_x2/bias", "shape": [32], "dtype": "float32"}, {"name": "front_residual_x3_conv_1x1_x1/depthwise_kernel", "shape": [1, 1, 64, 1], "dtype": "float32"}, {"name": "front_residual_x3_conv_1x1_x1/pointwise_kernel", "shape": [1, 1, 64, 64], "dtype": "float32"}, {"name": "front_residual_x3_conv_1x1_x1/bias", "shape": [64], "dtype": "float32"}, {"name": "front_residual_x3_conv_1x1_x3/depthwise_kernel", "shape": [1, 1, 64, 1], "dtype": "float32"}, {"name": "front_residual_x3_conv_1x1_x3/pointwise_kernel", "shape": [1, 1, 64, 128], "dtype": "float32"}, {"name": "front_residual_x3_conv_1x1_x3/bias", "shape": [128], "dtype": "float32"}, {"name": "front_residual_x3_conv_3x3_x2/depthwise_kernel", "shape": [3, 3, 64, 1], "dtype": "float32"}, {"name": "front_residual_x3_conv_3x3_x2/pointwise_kernel", "shape": [1, 1, 64, 64], "dtype": "float32"}, {"name": "front_residual_x3_conv_3x3_x2/bias", "shape": [64], "dtype": "float32"}, {"name": "front_residual_x3skip/depthwise_kernel", "shape": [1, 1, 64, 1], "dtype": "float32"}, {"name": "front_residual_x3skip/pointwise_kernel", "shape": [1, 1, 64, 128], "dtype": "float32"}, {"name": "front_residual_x3skip/bias", "shape": [128], "dtype": "float32"}, {"name": "hg0_l1_conv_1x1_x1/depthwise_kernel", "shape": [1, 1, 128, 1], "dtype": "float32"}, {"name": "hg0_l1_conv_1x1_x1/pointwise_kernel", "shape": [1, 1, 128, 64], "dtype": "float32"}, {"name": "hg0_l1_conv_1x1_x1/bias", "shape": [64], "dtype": "float32"}, {"name": "hg0_l1_conv_1x1_x3/depthwise_kernel", "shape": [1, 1, 64, 1], "dtype": "float32"}, {"name": "hg0_l1_conv_1x1_x3/pointwise_kernel", "shape": [1, 1, 64, 128], "dtype": "float32"}, {"name": "hg0_l1_conv_1x1_x3/bias", "shape": [128], "dtype": "float32"}, {"name": "hg0_l1_conv_3x3_x2/depthwise_kernel", "shape": [3, 3, 64, 1], "dtype": "float32"}, {"name": "hg0_l1_conv_3x3_x2/pointwise_kernel", "shape": [1, 1, 64, 64], "dtype": "float32"}, {"name": "hg0_l1_conv_3x3_x2/bias", "shape": [64], "dtype": "float32"}, {"name": "hg0_l2_conv_1x1_x1/depthwise_kernel", "shape": [1, 1, 128, 1], "dtype": "float32"}, {"name": "hg0_l2_conv_1x1_x1/pointwise_kernel", "shape": [1, 1, 128, 64], "dtype": "float32"}, {"name": "hg0_l2_conv_1x1_x1/bias", "shape": [64], "dtype": "float32"}, {"name": "hg0_l2_conv_1x1_x3/depthwise_kernel", "shape": [1, 1, 64, 1], "dtype": "float32"}, {"name": "hg0_l2_conv_1x1_x3/pointwise_kernel", "shape": [1, 1, 64, 128], "dtype": "float32"}, {"name": "hg0_l2_conv_1x1_x3/bias", "shape": [128], "dtype": "float32"}, {"name": "hg0_l2_conv_3x3_x2/depthwise_kernel", "shape": [3, 3, 64, 1], "dtype": "float32"}, {"name": "hg0_l2_conv_3x3_x2/pointwise_kernel", "shape": [1, 1, 64, 64], "dtype": "float32"}, {"name": "hg0_l2_conv_3x3_x2/bias", "shape": [64], "dtype": "float32"}, {"name": "hg0_l4_conv_1x1_x1/depthwise_kernel", "shape": [1, 1, 128, 1], "dtype": "float32"}, {"name": "hg0_l4_conv_1x1_x1/pointwise_kernel", "shape": [1, 1, 128, 64], "dtype": "float32"}, {"name": "hg0_l4_conv_1x1_x1/bias", "shape": [64], "dtype": "float32"}, {"name": "hg0_l4_conv_1x1_x3/depthwise_kernel", "shape": [1, 1, 64, 1], "dtype": "float32"}, {"name": "hg0_l4_conv_1x1_x3/pointwise_kernel", "shape": [1, 1, 64, 128], "dtype": "float32"}, {"name": "hg0_l4_conv_1x1_x3/bias", "shape": [128], "dtype": "float32"}, {"name": "hg0_l4_conv_3x3_x2/depthwise_kernel", "shape": [3, 3, 64, 1], "dtype": "float32"}, {"name": "hg0_l4_conv_3x3_x2/pointwise_kernel", "shape": [1, 1, 64, 64], "dtype": "float32"}, {"name": "hg0_l4_conv_3x3_x2/bias", "shape": [64], "dtype": "float32"}, {"name": "hg0_l8_conv_1x1_x1/depthwise_kernel", "shape": [1, 1, 128, 1], "dtype": "float32"}, {"name": "hg0_l8_conv_1x1_x1/pointwise_kernel", "shape": [1, 1, 128, 64], "dtype": "float32"}, {"name": "hg0_l8_conv_1x1_x1/bias", "shape": [64], "dtype": "float32"}, {"name": "hg0_l8_conv_1x1_x3/depthwise_kernel", "shape": [1, 1, 64, 1], "dtype": "float32"}, {"name": "hg0_l8_conv_1x1_x3/pointwise_kernel", "shape": [1, 1, 64, 128], "dtype": "float32"}, {"name": "hg0_l8_conv_1x1_x3/bias", "shape": [128], "dtype": "float32"}, {"name": "hg0_l8_conv_3x3_x2/depthwise_kernel", "shape": [3, 3, 64, 1], "dtype": "float32"}, {"name": "hg0_l8_conv_3x3_x2/pointwise_kernel", "shape": [1, 1, 64, 64], "dtype": "float32"}, {"name": "hg0_l8_conv_3x3_x2/bias", "shape": [64], "dtype": "float32"}, {"name": "hg0_rf1_connect_conv_1x1_x1/depthwise_kernel", "shape": [1, 1, 128, 1], "dtype": "float32"}, {"name": "hg0_rf1_connect_conv_1x1_x1/pointwise_kernel", "shape": [1, 1, 128, 64], "dtype": "float32"}, {"name": "hg0_rf1_connect_conv_1x1_x1/bias", "shape": [64], "dtype": "float32"}, {"name": "hg0_rf1_connect_conv_1x1_x3/depthwise_kernel", "shape": [1, 1, 64, 1], "dtype": "float32"}, {"name": "hg0_rf1_connect_conv_1x1_x3/pointwise_kernel", "shape": [1, 1, 64, 128], "dtype": "float32"}, {"name": "hg0_rf1_connect_conv_1x1_x3/bias", "shape": [128], "dtype": "float32"}, {"name": "hg0_rf1_connect_conv_3x3_x2/depthwise_kernel", "shape": [3, 3, 64, 1], "dtype": "float32"}, {"name": "hg0_rf1_connect_conv_3x3_x2/pointwise_kernel", "shape": [1, 1, 64, 64], "dtype": "float32"}, {"name": "hg0_rf1_connect_conv_3x3_x2/bias", "shape": [64], "dtype": "float32"}, {"name": "hg0_rf1_connect_conv_conv_1x1_x1/depthwise_kernel", "shape": [1, 1, 128, 1], "dtype": "float32"}, {"name": "hg0_rf1_connect_conv_conv_1x1_x1/pointwise_kernel", "shape": [1, 1, 128, 64], "dtype": "float32"}, {"name": "hg0_rf1_connect_conv_conv_1x1_x1/bias", "shape": [64], "dtype": "float32"}, {"name": "hg0_rf1_connect_conv_conv_1x1_x3/depthwise_kernel", "shape": [1, 1, 64, 1], "dtype": "float32"}, {"name": "hg0_rf1_connect_conv_conv_1x1_x3/pointwise_kernel", "shape": [1, 1, 64, 128], "dtype": "float32"}, {"name": "hg0_rf1_connect_conv_conv_1x1_x3/bias", "shape": [128], "dtype": "float32"}, {"name": "hg0_rf1_connect_conv_conv_3x3_x2/depthwise_kernel", "shape": [3, 3, 64, 1], "dtype": "float32"}, {"name": "hg0_rf1_connect_conv_conv_3x3_x2/pointwise_kernel", "shape": [1, 1, 64, 64], "dtype": "float32"}, {"name": "hg0_rf1_connect_conv_conv_3x3_x2/bias", "shape": [64], "dtype": "float32"}, {"name": "hg0_rf2_connect_conv_1x1_x1/depthwise_kernel", "shape": [1, 1, 128, 1], "dtype": "float32"}, {"name": "hg0_rf2_connect_conv_1x1_x1/pointwise_kernel", "shape": [1, 1, 128, 64], "dtype": "float32"}, {"name": "hg0_rf2_connect_conv_1x1_x1/bias", "shape": [64], "dtype": "float32"}, {"name": "hg0_rf2_connect_conv_1x1_x3/depthwise_kernel", "shape": [1, 1, 64, 1], "dtype": "float32"}, {"name": "hg0_rf2_connect_conv_1x1_x3/pointwise_kernel", "shape": [1, 1, 64, 128], "dtype": "float32"}, {"name": "hg0_rf2_connect_conv_1x1_x3/bias", "shape": [128], "dtype": "float32"}, {"name": "hg0_rf2_connect_conv_3x3_x2/depthwise_kernel", "shape": [3, 3, 64, 1], "dtype": "float32"}, {"name": "hg0_rf2_connect_conv_3x3_x2/pointwise_kernel", "shape": [1, 1, 64, 64], "dtype": "float32"}, {"name": "hg0_rf2_connect_conv_3x3_x2/bias", "shape": [64], "dtype": "float32"}, {"name": "hg0_rf2_connect_conv_conv_1x1_x1/depthwise_kernel", "shape": [1, 1, 128, 1], "dtype": "float32"}, {"name": "hg0_rf2_connect_conv_conv_1x1_x1/pointwise_kernel", "shape": [1, 1, 128, 64], "dtype": "float32"}, {"name": "hg0_rf2_connect_conv_conv_1x1_x1/bias", "shape": [64], "dtype": "float32"}, {"name": "hg0_rf2_connect_conv_conv_1x1_x3/depthwise_kernel", "shape": [1, 1, 64, 1], "dtype": "float32"}, {"name": "hg0_rf2_connect_conv_conv_1x1_x3/pointwise_kernel", "shape": [1, 1, 64, 128], "dtype": "float32"}, {"name": "hg0_rf2_connect_conv_conv_1x1_x3/bias", "shape": [128], "dtype": "float32"}, {"name": "hg0_rf2_connect_conv_conv_3x3_x2/depthwise_kernel", "shape": [3, 3, 64, 1], "dtype": "float32"}, {"name": "hg0_rf2_connect_conv_conv_3x3_x2/pointwise_kernel", "shape": [1, 1, 64, 64], "dtype": "float32"}, {"name": "hg0_rf2_connect_conv_conv_3x3_x2/bias", "shape": [64], "dtype": "float32"}, {"name": "hg0_rf4_connect_conv_1x1_x1/depthwise_kernel", "shape": [1, 1, 128, 1], "dtype": "float32"}, {"name": "hg0_rf4_connect_conv_1x1_x1/pointwise_kernel", "shape": [1, 1, 128, 64], "dtype": "float32"}, {"name": "hg0_rf4_connect_conv_1x1_x1/bias", "shape": [64], "dtype": "float32"}, {"name": "hg0_rf4_connect_conv_1x1_x3/depthwise_kernel", "shape": [1, 1, 64, 1], "dtype": "float32"}, {"name": "hg0_rf4_connect_conv_1x1_x3/pointwise_kernel", "shape": [1, 1, 64, 128], "dtype": "float32"}, {"name": "hg0_rf4_connect_conv_1x1_x3/bias", "shape": [128], "dtype": "float32"}, {"name": "hg0_rf4_connect_conv_3x3_x2/depthwise_kernel", "shape": [3, 3, 64, 1], "dtype": "float32"}, {"name": "hg0_rf4_connect_conv_3x3_x2/pointwise_kernel", "shape": [1, 1, 64, 64], "dtype": "float32"}, {"name": "hg0_rf4_connect_conv_3x3_x2/bias", "shape": [64], "dtype": "float32"}, {"name": "hg0_rf4_connect_conv_conv_1x1_x1/depthwise_kernel", "shape": [1, 1, 128, 1], "dtype": "float32"}, {"name": "hg0_rf4_connect_conv_conv_1x1_x1/pointwise_kernel", "shape": [1, 1, 128, 64], "dtype": "float32"}, {"name": "hg0_rf4_connect_conv_conv_1x1_x1/bias", "shape": [64], "dtype": "float32"}, {"name": "hg0_rf4_connect_conv_conv_1x1_x3/depthwise_kernel", "shape": [1, 1, 64, 1], "dtype": "float32"}, {"name": "hg0_rf4_connect_conv_conv_1x1_x3/pointwise_kernel", "shape": [1, 1, 64, 128], "dtype": "float32"}, {"name": "hg0_rf4_connect_conv_conv_1x1_x3/bias", "shape": [128], "dtype": "float32"}, {"name": "hg0_rf4_connect_conv_conv_3x3_x2/depthwise_kernel", "shape": [3, 3, 64, 1], "dtype": "float32"}, {"name": "hg0_rf4_connect_conv_conv_3x3_x2/pointwise_kernel", "shape": [1, 1, 64, 64], "dtype": "float32"}, {"name": "hg0_rf4_connect_conv_conv_3x3_x2/bias", "shape": [64], "dtype": "float32"}, {"name": "hg1_l1_conv_1x1_x1/depthwise_kernel", "shape": [1, 1, 128, 1], "dtype": "float32"}, {"name": "hg1_l1_conv_1x1_x1/pointwise_kernel", "shape": [1, 1, 128, 64], "dtype": "float32"}, {"name": "hg1_l1_conv_1x1_x1/bias", "shape": [64], "dtype": "float32"}, {"name": "hg1_l1_conv_1x1_x3/depthwise_kernel", "shape": [1, 1, 64, 1], "dtype": "float32"}, {"name": "hg1_l1_conv_1x1_x3/pointwise_kernel", "shape": [1, 1, 64, 128], "dtype": "float32"}, {"name": "hg1_l1_conv_1x1_x3/bias", "shape": [128], "dtype": "float32"}, {"name": "hg1_l1_conv_3x3_x2/depthwise_kernel", "shape": [3, 3, 64, 1], "dtype": "float32"}, {"name": "hg1_l1_conv_3x3_x2/pointwise_kernel", "shape": [1, 1, 64, 64], "dtype": "float32"}, {"name": "hg1_l1_conv_3x3_x2/bias", "shape": [64], "dtype": "float32"}, {"name": "hg1_l2_conv_1x1_x1/depthwise_kernel", "shape": [1, 1, 128, 1], "dtype": "float32"}, {"name": "hg1_l2_conv_1x1_x1/pointwise_kernel", "shape": [1, 1, 128, 64], "dtype": "float32"}, {"name": "hg1_l2_conv_1x1_x1/bias", "shape": [64], "dtype": "float32"}, {"name": "hg1_l2_conv_1x1_x3/depthwise_kernel", "shape": [1, 1, 64, 1], "dtype": "float32"}, {"name": "hg1_l2_conv_1x1_x3/pointwise_kernel", "shape": [1, 1, 64, 128], "dtype": "float32"}, {"name": "hg1_l2_conv_1x1_x3/bias", "shape": [128], "dtype": "float32"}, {"name": "hg1_l2_conv_3x3_x2/depthwise_kernel", "shape": [3, 3, 64, 1], "dtype": "float32"}, {"name": "hg1_l2_conv_3x3_x2/pointwise_kernel", "shape": [1, 1, 64, 64], "dtype": "float32"}, {"name": "hg1_l2_conv_3x3_x2/bias", "shape": [64], "dtype": "float32"}, {"name": "hg1_l4_conv_1x1_x1/depthwise_kernel", "shape": [1, 1, 128, 1], "dtype": "float32"}, {"name": "hg1_l4_conv_1x1_x1/pointwise_kernel", "shape": [1, 1, 128, 64], "dtype": "float32"}, {"name": "hg1_l4_conv_1x1_x1/bias", "shape": [64], "dtype": "float32"}, {"name": "hg1_l4_conv_1x1_x3/depthwise_kernel", "shape": [1, 1, 64, 1], "dtype": "float32"}, {"name": "hg1_l4_conv_1x1_x3/pointwise_kernel", "shape": [1, 1, 64, 128], "dtype": "float32"}, {"name": "hg1_l4_conv_1x1_x3/bias", "shape": [128], "dtype": "float32"}, {"name": "hg1_l4_conv_3x3_x2/depthwise_kernel", "shape": [3, 3, 64, 1], "dtype": "float32"}, {"name": "hg1_l4_conv_3x3_x2/pointwise_kernel", "shape": [1, 1, 64, 64], "dtype": "float32"}, {"name": "hg1_l4_conv_3x3_x2/bias", "shape": [64], "dtype": "float32"}, {"name": "hg1_l8_conv_1x1_x1/depthwise_kernel", "shape": [1, 1, 128, 1], "dtype": "float32"}, {"name": "hg1_l8_conv_1x1_x1/pointwise_kernel", "shape": [1, 1, 128, 64], "dtype": "float32"}, {"name": "hg1_l8_conv_1x1_x1/bias", "shape": [64], "dtype": "float32"}, {"name": "hg1_l8_conv_1x1_x3/depthwise_kernel", "shape": [1, 1, 64, 1], "dtype": "float32"}, {"name": "hg1_l8_conv_1x1_x3/pointwise_kernel", "shape": [1, 1, 64, 128], "dtype": "float32"}, {"name": "hg1_l8_conv_1x1_x3/bias", "shape": [128], "dtype": "float32"}, {"name": "hg1_l8_conv_3x3_x2/depthwise_kernel", "shape": [3, 3, 64, 1], "dtype": "float32"}, {"name": "hg1_l8_conv_3x3_x2/pointwise_kernel", "shape": [1, 1, 64, 64], "dtype": "float32"}, {"name": "hg1_l8_conv_3x3_x2/bias", "shape": [64], "dtype": "float32"}, {"name": "hg1_rf1_connect_conv_1x1_x1/depthwise_kernel", "shape": [1, 1, 128, 1], "dtype": "float32"}, {"name": "hg1_rf1_connect_conv_1x1_x1/pointwise_kernel", "shape": [1, 1, 128, 64], "dtype": "float32"}, {"name": "hg1_rf1_connect_conv_1x1_x1/bias", "shape": [64], "dtype": "float32"}, {"name": "hg1_rf1_connect_conv_1x1_x3/depthwise_kernel", "shape": [1, 1, 64, 1], "dtype": "float32"}, {"name": "hg1_rf1_connect_conv_1x1_x3/pointwise_kernel", "shape": [1, 1, 64, 128], "dtype": "float32"}, {"name": "hg1_rf1_connect_conv_1x1_x3/bias", "shape": [128], "dtype": "float32"}, {"name": "hg1_rf1_connect_conv_3x3_x2/depthwise_kernel", "shape": [3, 3, 64, 1], "dtype": "float32"}, {"name": "hg1_rf1_connect_conv_3x3_x2/pointwise_kernel", "shape": [1, 1, 64, 64], "dtype": "float32"}, {"name": "hg1_rf1_connect_conv_3x3_x2/bias", "shape": [64], "dtype": "float32"}, {"name": "hg1_rf1_connect_conv_conv_1x1_x1/depthwise_kernel", "shape": [1, 1, 128, 1], "dtype": "float32"}, {"name": "hg1_rf1_connect_conv_conv_1x1_x1/pointwise_kernel", "shape": [1, 1, 128, 64], "dtype": "float32"}, {"name": "hg1_rf1_connect_conv_conv_1x1_x1/bias", "shape": [64], "dtype": "float32"}, {"name": "hg1_rf1_connect_conv_conv_1x1_x3/depthwise_kernel", "shape": [1, 1, 64, 1], "dtype": "float32"}, {"name": "hg1_rf1_connect_conv_conv_1x1_x3/pointwise_kernel", "shape": [1, 1, 64, 128], "dtype": "float32"}, {"name": "hg1_rf1_connect_conv_conv_1x1_x3/bias", "shape": [128], "dtype": "float32"}, {"name": "hg1_rf1_connect_conv_conv_3x3_x2/depthwise_kernel", "shape": [3, 3, 64, 1], "dtype": "float32"}, {"name": "hg1_rf1_connect_conv_conv_3x3_x2/pointwise_kernel", "shape": [1, 1, 64, 64], "dtype": "float32"}, {"name": "hg1_rf1_connect_conv_conv_3x3_x2/bias", "shape": [64], "dtype": "float32"}, {"name": "hg1_rf2_connect_conv_1x1_x1/depthwise_kernel", "shape": [1, 1, 128, 1], "dtype": "float32"}, {"name": "hg1_rf2_connect_conv_1x1_x1/pointwise_kernel", "shape": [1, 1, 128, 64], "dtype": "float32"}, {"name": "hg1_rf2_connect_conv_1x1_x1/bias", "shape": [64], "dtype": "float32"}, {"name": "hg1_rf2_connect_conv_1x1_x3/depthwise_kernel", "shape": [1, 1, 64, 1], "dtype": "float32"}, {"name": "hg1_rf2_connect_conv_1x1_x3/pointwise_kernel", "shape": [1, 1, 64, 128], "dtype": "float32"}, {"name": "hg1_rf2_connect_conv_1x1_x3/bias", "shape": [128], "dtype": "float32"}, {"name": "hg1_rf2_connect_conv_3x3_x2/depthwise_kernel", "shape": [3, 3, 64, 1], "dtype": "float32"}, {"name": "hg1_rf2_connect_conv_3x3_x2/pointwise_kernel", "shape": [1, 1, 64, 64], "dtype": "float32"}, {"name": "hg1_rf2_connect_conv_3x3_x2/bias", "shape": [64], "dtype": "float32"}, {"name": "hg1_rf2_connect_conv_conv_1x1_x1/depthwise_kernel", "shape": [1, 1, 128, 1], "dtype": "float32"}, {"name": "hg1_rf2_connect_conv_conv_1x1_x1/pointwise_kernel", "shape": [1, 1, 128, 64], "dtype": "float32"}, {"name": "hg1_rf2_connect_conv_conv_1x1_x1/bias", "shape": [64], "dtype": "float32"}, {"name": "hg1_rf2_connect_conv_conv_1x1_x3/depthwise_kernel", "shape": [1, 1, 64, 1], "dtype": "float32"}, {"name": "hg1_rf2_connect_conv_conv_1x1_x3/pointwise_kernel", "shape": [1, 1, 64, 128], "dtype": "float32"}, {"name": "hg1_rf2_connect_conv_conv_1x1_x3/bias", "shape": [128], "dtype": "float32"}, {"name": "hg1_rf2_connect_conv_conv_3x3_x2/depthwise_kernel", "shape": [3, 3, 64, 1], "dtype": "float32"}, {"name": "hg1_rf2_connect_conv_conv_3x3_x2/pointwise_kernel", "shape": [1, 1, 64, 64], "dtype": "float32"}, {"name": "hg1_rf2_connect_conv_conv_3x3_x2/bias", "shape": [64], "dtype": "float32"}, {"name": "hg1_rf4_connect_conv_1x1_x1/depthwise_kernel", "shape": [1, 1, 128, 1], "dtype": "float32"}, {"name": "hg1_rf4_connect_conv_1x1_x1/pointwise_kernel", "shape": [1, 1, 128, 64], "dtype": "float32"}, {"name": "hg1_rf4_connect_conv_1x1_x1/bias", "shape": [64], "dtype": "float32"}, {"name": "hg1_rf4_connect_conv_1x1_x3/depthwise_kernel", "shape": [1, 1, 64, 1], "dtype": "float32"}, {"name": "hg1_rf4_connect_conv_1x1_x3/pointwise_kernel", "shape": [1, 1, 64, 128], "dtype": "float32"}, {"name": "hg1_rf4_connect_conv_1x1_x3/bias", "shape": [128], "dtype": "float32"}, {"name": "hg1_rf4_connect_conv_3x3_x2/depthwise_kernel", "shape": [3, 3, 64, 1], "dtype": "float32"}, {"name": "hg1_rf4_connect_conv_3x3_x2/pointwise_kernel", "shape": [1, 1, 64, 64], "dtype": "float32"}, {"name": "hg1_rf4_connect_conv_3x3_x2/bias", "shape": [64], "dtype": "float32"}, {"name": "hg1_rf4_connect_conv_conv_1x1_x1/depthwise_kernel", "shape": [1, 1, 128, 1], "dtype": "float32"}, {"name": "hg1_rf4_connect_conv_conv_1x1_x1/pointwise_kernel", "shape": [1, 1, 128, 64], "dtype": "float32"}, {"name": "hg1_rf4_connect_conv_conv_1x1_x1/bias", "shape": [64], "dtype": "float32"}, {"name": "hg1_rf4_connect_conv_conv_1x1_x3/depthwise_kernel", "shape": [1, 1, 64, 1], "dtype": "float32"}, {"name": "hg1_rf4_connect_conv_conv_1x1_x3/pointwise_kernel", "shape": [1, 1, 64, 128], "dtype": "float32"}, {"name": "hg1_rf4_connect_conv_conv_1x1_x3/bias", "shape": [128], "dtype": "float32"}, {"name": "hg1_rf4_connect_conv_conv_3x3_x2/depthwise_kernel", "shape": [3, 3, 64, 1], "dtype": "float32"}, {"name": "hg1_rf4_connect_conv_conv_3x3_x2/pointwise_kernel", "shape": [1, 1, 64, 64], "dtype": "float32"}, {"name": "hg1_rf4_connect_conv_conv_3x3_x2/bias", "shape": [64], "dtype": "float32"}]}]}